Model/Weights/lr_dec_noBiDir_DirLoss.pth (torch, 932393 bytes, 12 tensors)

embedding.weight f4 [64, 6]
0	0xbe766237	-0.24060903
1	0xbdd06c66	-0.10176925
2	0xbe4008d4	-0.18753368
3	0xbe4dc5cf	-0.20094989
4	0x3e0d9b97	0.13828884
5	0xbe889787	-0.26678106
6	0xbbad5135	-0.0052892216
7	0x3ecfafac	0.40563715
8	0xbec8a770	-0.39190245
9	0x3e1b3a54	0.15158969
10	0xbc156c79	-0.0091201
11	0xbc6366ac	-0.013879459
12	0xbea47b33	-0.32125244
13	0xbeab8309	-0.3349841
14	0xbd13efb3	-0.036117267
15	0xbec02037	-0.37524578
16	0x3d29448f	0.04132515
17	0xbeb5975d	-0.35467044
18	0xbe339990	-0.17539048
19	0xbeb757c1	-0.35809138
20	0x3ec1d3db	0.37856945
21	0xbd84ca3d	-0.064838864
22	0xbeb24ac9	-0.34822682
23	0xbdf2ad98	-0.11849517
24	0x3deac613	0.11463561
25	0x3ea14524	0.31498063
26	0xbd269d90	-0.040677607
27	0xbe331880	-0.17489815
28	0x3d9257d2	0.07145657
29	0x3de2f142	0.110811725
30	0x3b920e49	0.0044572693
31	0x3eb4fb72	0.35348088
32	0x3ea9959e	0.3312196
33	0xbe074d58	-0.13213098
34	0x3e19ca44	0.15018564
35	0x3eaa9f6b	0.3332475
36	0xbe3202cf	-0.17383884
37	0xbeb68c30	-0.3565383
38	0x3e619840	0.22030735
39	0x3d209ac3	0.039210092
40	0xbe5b555f	-0.21419285
41	0xbe237a83	-0.15964703
42	0xbec8c93b	-0.39216027
43	0xbdaaa8c5	-0.083329715
44	0xbec4bc70	-0.38425016
45	0x3ddf2001	0.10894776
46	0x3dceb2d7	0.10092705
47	0x3d3c6947	0.045998838
48	0x3e9064c2	0.28201872
49	0xbe94bc20	-0.29049778
50	0x3e4df96e	0.20114681
51	0xbe3e43ec	-0.18580598
52	0x3c3813d0	0.011235192
53	0x3e2bb807	0.1676942
54	0x3eaa5062	0.33264452
55	0xbeba8a0d	-0.3643345
56	0x3ecbf175	0.39832655
57	0x3e628e71	0.2212465
58	0x3e1dfd02	0.15428546
59	0xbe41fbc2	-0.18943694
60	0xbe27a1fc	-0.16370386
61	0x3e22ffcf	0.15917896
62	0xbe986360	-0.29763317
63	0x3ead483c	0.33844173
64	0xbe5e3508	-0.21699917
65	0xbe2cac0a	-0.16862503
66	0x3dfc10bf	0.123078816
67	0x3eb0119e	0.3438844
68	0x3d22dbec	0.039760515
69	0xbe844948	-0.2583716
70	0x3ebe8dec	0.37217653
71	0xbe34dfc1	-0.1766348
72	0x3e017924	0.12643868
73	0xbe3c7699	-0.18404616
74	0xbc522b6a	-0.0128277335
75	0x3e86926c	0.26283586
76	0xbeb7c075	-0.3588902
77	0x3e05f111	0.13080241
78	0x3dddb0c4	0.10824731
79	0x3cc818d1	0.024425896
80	0x3eb22c0a	0.34799224
81	0x3eba138a	0.36343032
82	0x3ec03245	0.37538353
83	0x3d0453ee	0.032306604
84	0xbe7084d1	-0.23488165
85	0x3e63543f	0.22200106
86	0x3eb3ce20	0.35118198
87	0xbda22ea8	-0.07919055
88	0xbe3b2840	-0.18277073
89	0x3df9ac07	0.12191015
90	0x3e644968	0.22293627
91	0xbd90cc4f	-0.07070219
92	0xbecfd9fe	-0.40596002
93	0xbe4ba3e5	-0.1988674
94	0xbe283db0	-0.16429782
95	0xbdb101de	-0.08642934
96	0x3eb7dfaf	0.35912845
97	0xbd8be9f6	-0.06831734
98	0xbd8d5fe8	-0.06903058
99	0x3e90cae6	0.282798
100	0xbe82f2f3	-0.2557598
101	0xbd589c13	-0.05288322
102	0x3e3170e3	0.17328219
103	0x3ecad463	0.39615163
104	0xbe1e2be7	-0.15446435
105	0xbe1ab926	-0.15109691
106	0x3e31411a	0.1730999
107	0xbccb5c17	-0.024824185
108	0xbeab1653	-0.3341547
109	0x3ea625af	0.32450625
110	0x3e5e9320	0.21735811
111	0x3cf7e2cb	0.03025951
112	0xbe27f36f	-0.16401456
113	0xbed0530f	-0.4068837
114	0xbe99bf5e	-0.30028814
115	0xbe15c0c4	-0.14624316
116	0xbe6d3e06	-0.23168191
117	0xbe178b0b	-0.14799134
118	0x3e64e0f9	0.22351445
119	0xbeb7bc06	-0.35885638
120	0x3e4800c8	0.19531548
121	0xbe4858e0	-0.19565153
122	0x3eaa55cb	0.3326858
123	0x3bbaed78	0.005704578
124	0x3e3e751a	0.18599358
125	0x3e92947e	0.28628916
126	0x3e633105	0.22186668
127	0x3e84898c	0.2588619
128	0x3ebf3e14	0.3735205
129	0x3ec3a2ed	0.3821024
130	0x3e9da9ee	0.3079371
131	0xbe5f071a	-0.21780053
132	0xbd4e7788	-0.050406963
133	0x3ed1c3a0	0.40969563
134	0xbdc96e28	-0.09835464
135	0xbeb4992e	-0.35273117
136	0x3ec918e0	0.3927679
137	0xbe8a4989	-0.27009228
138	0x3e17c500	0.14821243
139	0xbec3ba14	-0.38227904
140	0xbec1cb18	-0.3785026
141	0x3e5c04df	0.21486233
142	0x3e9b48eb	0.3032907
143	0x3e8a70dd	0.27039233
144	0x3e6d02c1	0.23145582
145	0x3d349203	0.04408456
146	0xbe5f35a5	-0.21797808
147	0x3e833edf	0.25633904
148	0x3e6a08ed	0.22854967
149	0xbe895662	-0.26823717
150	0x3eb9f297	0.36317894
151	0x3e00e824	0.12588555
152	0x3e85d322	0.26137644
153	0xbd1213ad	-0.035663296
154	0xbd55c1d9	-0.05218682
155	0x3e0adae0	0.13560057
156	0x3e73d77b	0.23812668
157	0x3c10b39b	0.008831884
158	0xbe1a099f	-0.15042733
159	0xbe830dd4	-0.25596488
160	0xbea01caf	-0.31271884
161	0x3e210707	0.15725337
162	0x3eb17f33	0.34667358
163	0x3eac1da7	0.33616373
164	0xbe967a38	-0.2939012
165	0x3eb4bcaf	0.35300204
166	0x3df50704	0.11964229
167	0xbd97046a	-0.07373889
168	0x3e3b5aee	0.18296406
169	0xbdf01b41	-0.11723948
170	0xbe3dc335	-0.18531497
171	0x3e09fbd3	0.1347497
172	0xbe7b8602	-0.24562839
173	0xbddd75e1	-0.10813499
174	0xbc8d712d	-0.01726588
175	0x3dc40fe5	0.09573344
176	0xbecf8685	-0.40532318
177	0x39449dec	0.00018750847
178	0xbe6f180f	-0.23349021
179	0x3d29d39d	0.041461576
180	0x3dc3568f	0.09537994
181	0xbe53ad98	-0.2067169
182	0x3e9c3cf2	0.30515248
183	0x3ea3629d	0.31911173
184	0x3e2626c5	0.16225727
185	0x3d966077	0.07342618
186	0xbec4d37f	-0.3844261
187	0x3d19cab6	0.037546836
188	0xbd1dc74d	-0.038520146
189	0x3ec23f67	0.37938997
190	0xbec61382	-0.38686758
191	0xbe03d5f2	-0.12874582
192	0xbdc18f8f	-0.0945121
193	0x3e71e022	0.23620656
194	0xbe56d00a	-0.20977798
195	0xbdb9f627	-0.09080153
196	0x3eb8db1e	0.36104673
197	0xbe2db123	-0.16962104
198	0x3ca26490	0.019823343
199	0xbeb85f09	-0.36010006
200	0xbe9d97ab	-0.30779776
201	0xbe493f79	-0.19653119
202	0xbe45b69b	-0.1930794
203	0x3cfc65d7	0.03081028
204	0x3e11c689	0.14235891
205	0x3d4370cb	0.04771499
206	0xbea0e9f0	-0.3142848
207	0xbe4ae4eb	-0.19813888
208	0xbe679045	-0.22613628
209	0x3dcfb716	0.10142343
210	0x3e355b06	0.17710504
211	0x3d110a6b	0.035410326
212	0xbd748642	-0.05969835
213	0xbd0199bd	-0.031640757
214	0xbec0c6b5	-0.376516
215	0x3dadcaff	0.08485984
216	0xbe3ad2bb	-0.1824445
217	0xbe6e01c4	-0.23242861
218	0xbe9e430c	-0.30910528
219	0x3e824116	0.25440282
220	0x3e41de30	0.18932414
221	0x3cd5e89c	0.026111893
222	0x3e5ba5c3	0.21449952
223	0x3df989c7	0.12184482
224	0x3ccc05cd	0.02490511
225	0xbed346b7	-0.4126489
226	0xbd92a5dd	-0.07160542
227	0xbe918ff4	-0.2843014
228	0x3e0e1dec	0.13878602
229	0x3eca43f4	0.3950497
230	0x3ddc5941	0.10759211
231	0xbe953acc	-0.2914642
232	0xbe90cf8b	-0.28283343
233	0xbeb0cd4a	-0.34531623
234	0xbe843c27	-0.25827143
235	0xbd44b90b	-0.048028033
236	0x3da84b9a	0.08217545
237	0xbe971e5f	-0.2951536
238	0x3de0293d	0.109453656
239	0xbe26ff6b	-0.16308372
240	0xbed929e9	-0.42414787
241	0x3e25589a	0.1614708
242	0x3ddfdb26	0.10930471
243	0x3e9ede20	0.31028843
244	0xbeaac8ba	-0.33356267
245	0xbe891d2a	-0.26780063
246	0xbe8666f6	-0.26250428
247	0x3eb3b349	0.3509772
248	0x3e37e6e0	0.17959166
249	0xbd036263	-0.03207625
250	0xbd98bf92	-0.07458414
251	0x3e2e3073	0.1701067
252	0x3e5948e1	0.21219207
253	0xbebbc3ec	-0.36672914
254	0x3df648ff	0.12025642
255	0x3e4c882e	0.19973823

embedding.bias f4 [64]
0	0xbe0648bd	-0.13113685
1	0xbecc0a19	-0.39851454
2	0x3d60e935	0.054909904
3	0xbec74c16	-0.38925236
4	0xbdd0f19b	-0.102023326
5	0xbec58f58	-0.38585925
6	0x3d7d020e	0.061769538
7	0xbeb055d0	-0.3444047
8	0xbeb0f2f8	-0.3456037
9	0xbea6acb8	-0.3255365
10	0x3e8bd219	0.2730873
11	0x3eb04381	0.344265
12	0x3e8edf53	0.27904758
13	0xbed5b8e7	-0.41742632
14	0x3d06a373	0.03287072
15	0x3dd05ea2	0.101743
16	0xbeab858c	-0.33500326
17	0x3ec81135	0.39075628
18	0xbec4d76b	-0.384456
19	0x3ec2d1f2	0.380508
20	0x3e5ab532	0.21358183
21	0xbe672734	-0.22573549
22	0x3dd943c5	0.10608629
23	0xbdf9957f	-0.12186717
24	0x3a75fa73	0.0009383328
25	0xbeda1ce5	-0.4260017
26	0x3e1b9aa9	0.15195717
27	0x3d826187	0.06366258
28	0xbec159c8	-0.3776381
29	0x3ec5d7a7	0.38641092
30	0x3e9cfc82	0.30661398
31	0xbceb6fc4	-0.028739817
32	0xbd909193	-0.07059016
33	0xbc517ecc	-0.012786578
34	0x3eb476c6	0.35246867
35	0x3d78b14d	0.060715962
36	0xbe334378	-0.17506206
37	0xbd8f5e55	-0.07000414
38	0x3e1e0c61	0.1543441
39	0x3e8e9660	0.27849102
40	0x3db30ae1	0.08742309
41	0xbe9a0daa	-0.3008855
42	0xbedd0331	-0.43166497
43	0xbea9cdde	-0.33164877
44	0xbdb36548	-0.08759552
45	0xbeb3ac74	-0.3509251
46	0x3ec1a8f1	0.37824205
47	0xbed06110	-0.40699053
48	0xbdec0fdb	-0.11526462
49	0xbeaa3eba	-0.33250982
50	0x3e85e43d	0.26150694
51	0x3ce138ba	0.02749287
52	0x3d9d13b6	0.07669775
53	0x3e6396b0	0.22225451
54	0x3e914fe0	0.28381252
55	0xbdbfcff2	-0.09365834
56	0xbeaf9a8a	-0.3429759
57	0x3ee1edfd	0.44126883
58	0xbe807fc3	-0.25097474
59	0x3ea36fe5	0.31921306
60	0x3e8f6d9d	0.28013316
61	0x3e095fc1	0.13415433
62	0xbe94b9ce	-0.29048008
63	0xbec88b17	-0.39168617

encoder_lstm.weight_ih_l0 f4 [512, 64]
0	0x3993eaf2	0.00028213073
1	0x3cb52881	0.02211404
2	0x3c4b86b5	0.012422253
3	0xbd2d415e	-0.042298667
4	0xbda0255a	-0.07819624
5	0x3b73ae7d	0.003718286
6	0x3d28fc9f	0.041256543
7	0x3d8fcf4f	0.07021963
8	0xbd35dc08	-0.04439929
9	0xbc408f27	-0.01175288
10	0x3b87eabb	0.004147855
11	0xbc47a3f4	-0.012185086
12	0x3d92a977	0.07161229
13	0x3bc7ed46	0.0061012832
14	0x3d6a3b37	0.057185378
15	0xbdbabd83	-0.09118178
16	0xbc1dac44	-0.009623591
17	0x3db918ea	0.09037955
18	0x3d48c7c4	0.049018636
19	0xbd627fcb	-0.055297654
20	0xbc86d66e	-0.01645967
21	0x3c0ef6bf	0.008725821
22	0x3d282c7f	0.04105806
23	0xbc73e7eb	-0.0148868365
24	0x3d9700b3	0.0737318
25	0x3cdff3bd	0.027337903
26	0x3d9fdecc	0.07806167
27	0xbd17bbfb	-0.037044507
28	0xbccad380	-0.024759054
29	0xbd4870d8	-0.04893574
30	0x3d068c8d	0.032848883
31	0x3b986d41	0.004651696
32	0xbd6464fa	-0.05576036
33	0xbc3b1d06	-0.011420494
34	0xbd9c225d	-0.07623742
35	0xbd999f19	-0.075010486
36	0xbd1f7ee4	-0.03893937
37	0x3d89d3ee	0.067298755
38	0x3dd32406	0.10309605
39	0x3c5ceee1	0.013484688
40	0xbce5b226	-0.02803905
41	0x3db156f5	0.08659164
42	0x3be940eb	0.0071183345
43	0x3db691e8	0.08914548
44	0x3c2b18a6	0.010442888
45	0x3d0d2150	0.034455597
46	0xbd8808b5	-0.06642286
47	0xbc8f10cd	-0.017464066
48	0xbd73700a	-0.05943302
49	0xbd80bb14	-0.06285682
50	0x3d5821c8	0.05276659
51	0xbd380c24	-0.044933453
52	0x3d034f0a	0.0320578
53	0xbb8ff818	-0.0043935888
54	0x3cbca750	0.023029
55	0x3d27ee4d	0.040998746
56	0x3d449dd2	0.04800207
57	0x3cda310b	0.026634714
58	0x3c8458d4	0.016155638
59	0xbcbdb729	-0.023158627
60	0x3cb52fb8	0.02211748
61	0xbd298dbb	-0.04139493
62	0xbdab59c9	-0.083667345
63	0x3d5ee874	0.054420903
64	0xbd6f2348	-0.058383256
65	0xbd2f499e	-0.042794816
66	0xbd23685c	-0.039894447
67	0x3d1aea59	0.037821148
68	0x3cd62af9	0.026143538
69	0xbb939760	-0.0045041293
70	0x3d7ce0e0	0.061737895
71	0x3cab0dfa	0.020880688
72	0x3d90ddd4	0.0707356
73	0xbd993a3f	-0.07481813
74	0xbc5bedc4	-0.013423387
75	0x3dc08123	0.09399631
76	0xbdb3c4c3	-0.08777764
77	0xbce58261	-0.028016271
78	0xbda090d0	-0.07840121
79	0xbc179ab6	-0.009253195
80	0x3d1b54f6	0.037922822
81	0xbc32951c	-0.010899808
82	0x3d5460bb	0.051850062
83	0x3c0987af	0.008394166
84	0xbd816a36	-0.06319086
85	0x3da28c5b	0.07936927
86	0x3dd3ebfa	0.10347743
87	0x3d70d282	0.058794506
88	0xbd9426d9	-0.07233972
89	0xbcf51911	-0.02991918
90	0xbd247008	-0.040145904
91	0xbb78c0f0	-0.0037956797
92	0xbd907677	-0.070538454
93	0xbd90e8be	-0.07075642
94	0x3d16fac3	0.03686024
95	0x3d59e010	0.0531922
96	0xbd1cb585	-0.038259048
97	0xbd597147	-0.053086545
98	0xbd8be7f6	-0.068313524
99	0x3d311ce5	0.043240447
100	0x3d5a4122	0.05328477
101	0xbc8b2afd	-0.016988272
102	0xbd5f4953	-0.054513287
103	0xbd72995e	-0.059228294
104	0x3d59495f	0.053048488
105	0x3d72de21	0.05929387
106	0x3c4f8dbb	0.0126680685
107	0xbd2fbab3	-0.04290266
108	0x3d0ccb11	0.034373347
109	0xbd29921b	-0.041399103
110	0xbcfff729	-0.031245785
111	0x3d994941	0.07484675
112	0xbcc6d0dc	-0.024269514
113	0x3d78dc21	0.060756806
114	0xbd8bd127	-0.06827002
115	0xbcc9b9b1	-0.024624677
116	0x3cb1007b	0.021606674
117	0xbd8ec8db	-0.06971904
118	0xbd022ed4	-0.03178294
119	0x3cfd7bb3	0.030942773
120	0xbd3735a7	-0.0447289
121	0x3d8843e8	0.06653577
122	0xbb85e467	-0.0040860656
123	0xbc0a55d0	-0.008443311
124	0xbc38e5ba	-0.01128524
125	0x3cb1e924	0.021717615
126	0x3d573797	0.05254325
127	0x3cc94d25	0.024572918
128	0x3d97aff1	0.07406605
129	0x3d4f4b06	0.050608657
130	0xbc1aea3a	-0.009455258
131	0xbd9ff3c3	-0.07810166
132	0xbd3ac292	-0.045595713
133	0xbc27018c	-0.01019324
134	0x3d79ecd3	0.06101687
135	0xbd5a17fb	-0.053245526
136	0xbd88d7f0	-0.06681812
137	0x3d081bd8	0.03322968
138	0x3cf38720	0.029727519
139	0xbc6d3173	-0.014477122
140	0xbdd90665	-0.10596923
141	0xbd10ded8	-0.03536877
142	0x3b892335	0.004185105
143	0x3d20a38c	0.03921847
144	0xbc0c7b0f	-0.008574261
145	0xbba28b86	-0.00496048
146	0x3d601f01	0.054717068
147	0x3d0c271a	0.034216978
148	0x3d6ba6ea	0.05753223
149	0xbd67b655	-0.05657037
150	0x3e0ff0be	0.1405668
151	0x3c313041	0.010814727
152	0x3db7e62f	0.08979451
153	0x3d236f67	0.039901163
154	0x3bb8a265	0.0056345933
155	0x3d443b9d	0.047908414
156	0xbdb3533f	-0.08756112
157	0xbdbdc35a	-0.09265776
158	0x3d2ef82a	0.042717136
159	0x3d3fe238	0.0468466
160	0x3c10d01b	0.008838679
161	0x3d902fb8	0.07040352
162	0xbdad4cab	-0.08461889
163	0xbd50dee7	-0.050993826
164	0x3ba1c660	0.004936978
165	0x3d60f8e8	0.054924875
166	0x3c6f73e1	0.01461503
167	0xbbf65fe0	-0.0075187534
168	0x3d4c50eb	0.049881857
169	0x3d9a0840	0.07521105
170	0x3d03c679	0.0321717
171	0x3d75164f	0.05983573
172	0x3da48344	0.080328494
173	0xbd988db6	-0.07448904
174	0xbd9d7e51	-0.076901086
175	0x3c2334ca	0.009961316
176	0x3d0835d5	0.033254463
177	0x3d8a4c8d	0.06752882
178	0x3daf57bb	0.08561655
179	0xbcb5c371	-0.02218792
180	0x3d3c25e2	0.045934565
181	0x3db9bffc	0.09069821
182	0x3d8fcce5	0.070215024
183	0xbd870d71	-0.065943606
184	0x3d77e810	0.060524046
185	0x3d96f1c4	0.07370332
186	0x3ddfafbc	0.109221905
187	0x3cbb8202	0.022889141
188	0xbd8cbbdc	-0.06871769
189	0x3c5fd050	0.013660505
190	0x3d4e5891	0.050377432
191	0xbd187c7e	-0.0372281
192	0xbdbbdcc4	-0.09172967
193	0x3d71f7c8	0.059074193
194	0xbdbdfefd	-0.09277151
195	0x3b175f1e	0.0023097466
196	0x3d9ede85	0.07757286
197	0xbd5303d1	-0.05151731
198	0x3ce62e49	0.028098242
199	0x3d345664	0.0440277
200	0x3d00631c	0.031344518
201	0xbcab30f4	-0.020897366
202	0xbd1fb046	-0.038986467
203	0xbd8e146c	-0.06937489
204	0xbc3bc071	-0.011459456
205	0x3bdb2ebe	0.0066889217
206	0x3d5801d4	0.05273612
207	0x3bd227a1	0.0064134155
208	0x3c83da2d	0.016095245
209	0xbba67a14	-0.005080471
210	0xbd17cd9b	-0.037061315
211	0x3d1e154b	0.038594525
212	0x3b418121	0.002952643
213	0x3d363c44	0.044491068
214	0xbd0d3d41	-0.034482244
215	0xbdccdd1e	-0.10003112
216	0xbce4d600	-0.027934074
217	0xbd6b0229	-0.057375107
218	0x3d1ef90f	0.03881174
219	0x3d90ea1e	0.07075904
220	0xbdc94f57	-0.09829586
221	0x3bd4d37e	0.0064949384
222	0x3cb99768	0.022655204
223	0xbdc78d6b	-0.0974377
224	0x3cee31fe	0.029076573
225	0x3d283189	0.041062865
226	0x3d8986bd	0.067151524
227	0xbd524fab	-0.05134551
228	0x3d6fd845	0.05855586
229	0xbd42bfa4	-0.047546044
230	0xbd4ac81c	-0.049507245
231	0xbdbf9e7e	-0.09356402
232	0x3b92e140	0.0044824183
233	0xbd5f84dc	-0.054570064
234	0x3d849b53	0.06474938
235	0x3d94a068	0.072571576
236	0xbd157abd	-0.036494005
237	0xbd3d3b64	-0.046199217
238	0xbd9e35b1	-0.077250846
239	0x3d30e4d8	0.043186992
240	0xbc7302de	-0.014832227
241	0x3d151e05	0.036405582
242	0xbcad4e4a	-0.021155495
243	0xbddda713	-0.108228825
244	0xbc5d4bb0	-0.013506815
245	0x3db23a64	0.087025434
246	0x3c9cbcae	0.019132938
247	0xbd85936c	-0.06522259
248	0x3cc5487d	0.024082417
249	0xbd8d496b	-0.06898769
250	0x3dcd555a	0.10026045
251	0xbd1d39b7	-0.03838512
252	0x3cc168c0	0.023609519
253	0xbd677228	-0.056505352
254	0xbd6f505f	-0.058426257
255	0x3d84f88b	0.06492718

encoder_lstm.weight_hh_l0 f4 [512, 128]
0	0xbc40e947	-0.011774368
1	0x3d7d70c3	0.061875116
2	0x3db75076	0.089508936
3	0x3d352498	0.04422435
4	0xbd61b22c	-0.05510156
5	0x3d11a96f	0.035561975
6	0xbd4b1aeb	-0.049586218
7	0x3d890013	0.06689467
8	0x3d930bb0	0.071799636
9	0xbd98e69d	-0.07465861
10	0x3d94b69d	0.07261393
11	0xbd0f81d4	-0.035035923
12	0x3cead627	0.028666569
13	0xbd280b67	-0.0410265
14	0xbdb17700	-0.086652756
15	0x3cdc1273	0.026864266
16	0x3d08532f	0.033282455
17	0x3ce7d8e1	0.028301658
18	0x3d1bcc76	0.038036786
19	0x3da887a9	0.08229
20	0xbd496a7a	-0.04917381
21	0x3cd92c9c	0.02651053
22	0xbd7cac3e	-0.0616877
23	0x3d8a9962	0.06767537
24	0xbdb25ad9	-0.08708734
25	0xbdaa1234	-0.08304253
26	0xbd2d8018	-0.042358488
27	0xbcaeca6e	-0.02133676
28	0xbd8765ef	-0.06611239
29	0xbd201ef6	-0.039092027
30	0xbd5733cc	-0.05253963
31	0x3d958890	0.07301438
32	0xbd10dc9d	-0.035366643
33	0xbd3b2723	-0.04569162
34	0x3d8336ca	0.064069346
35	0x3d81b91e	0.063341364
36	0x3da06f60	0.07833743
37	0xbd8bfbc2	-0.06835128
38	0x3d628aab	0.055308025
39	0x3d468f7e	0.04847669
40	0x3c57386d	0.013136012
41	0xbd82d50c	-0.06388292
42	0xbcd70e4d	-0.026251936
43	0x3b9172ae	0.0044387197
44	0x3d570d8e	0.05250316
45	0x3d78450f	0.060612734
46	0x3d5b3a30	0.05352229
47	0x3dc273af	0.09494721
48	0xbc5d3d8b	-0.0135034425
49	0x3c2a46f9	0.010392898
50	0x3c31ce4a	0.010852406
51	0x3d431376	0.04762598
52	0x3da6f98a	0.081530645
53	0xbca77fac	-0.02044662
54	0x3d90d5cd	0.07072029
55	0xbd81143e	-0.06302689
56	0xbc2beb5c	-0.010493126
57	0x3d1b1392	0.03786046
58	0x3d6871fc	0.05674933
59	0xbc87c46e	-0.016573157
60	0xbdabf960	-0.08397174
61	0xba6d93d2	-0.00090628595
62	0x3c9f0235	0.019410232
63	0x3d92b2ab	0.071629845
64	0xbd7cd222	-0.061723836
65	0xbd90336e	-0.070410594
66	0x3db6748e	0.0890895
67	0xbbc82431	-0.00610783
68	0xbd4e3c30	-0.050350368
69	0xbd389aa3	-0.045069348
70	0xbce47163	-0.027886098
71	0x3d1c6503	0.03818227
72	0xbcc288fb	-0.023746958
73	0xbca0446c	-0.019563876
74	0x3c1d090c	0.0095846765
75	0xbd86b077	-0.06576627
76	0xbd884ba4	-0.06655052
77	0x3d22f6bf	0.039786097
78	0xbc086bfc	-0.008326527
79	0x3bc00500	0.005859971
80	0x3bac9ed0	0.0052679554
81	0x3cb11996	0.021618646
82	0xbcaf1efb	-0.021377077
83	0x3d15a0d1	0.03653032
84	0xbdcf7393	-0.10129466
85	0x3d6d46a1	0.057928685
86	0x3cb26a57	0.021779222
87	0xbcf035db	-0.029322555
88	0x3d91c950	0.071184754
89	0x3b22fd2c	0.002487014
90	0x3d1bd3e2	0.038043864
91	0xbda7567d	-0.08170793
92	0xbd180d24	-0.037121907
93	0xbd4a5869	-0.04940072
94	0xbd18265b	-0.037145954
95	0x3d0b03f1	0.033939306
96	0x3d58e133	0.05294914
97	0x3d6fe04d	0.05856352
98	0xbda6634b	-0.081244074
99	0xbd82231f	-0.06354355
100	0x3bcb382b	0.006201764
101	0xbcc8c67e	-0.024508711
102	0x3c25ec9b	0.010127212
103	0xbd6f0979	-0.058358643
104	0xbc857325	-0.016290257
105	0xbc976c87	-0.018484367
106	0xbd8538b8	-0.06504959
107	0x3c84f81b	0.016231587
108	0x3c3f5f84	0.011680488
109	0xbcd44f9f	-0.025916873
110	0xbd4e88b3	-0.050423335
111	0x3d99f1e9	0.07516844
112	0xbd76ae9f	-0.060225125
113	0x3d318092	0.043335505
114	0xbcdb55cb	-0.026774308
115	0xbc9bb866	-0.019008826
116	0xbb9db6f7	-0.004813071
117	0x3c1c675e	0.009546129
118	0xb915a80f	-0.00014272354
119	0xbd86160e	-0.06547175
120	0x3c7ba130	0.015358254
121	0x3d71e4e7	0.05905619
122	0xbc857c7e	-0.016294714
123	0xbda9f573	-0.08298769
124	0xbcee3dc7	-0.029082192
125	0xbd8c3480	-0.06845951
126	0x3da72059	0.08160467
127	0x3d763598	0.060109705
128	0x3db7c273	0.08972635
129	0x3dc56766	0.09638862
130	0x3d94c571	0.072642215
131	0xbd857fb4	-0.06518498
132	0xbc8a132d	-0.016854847
133	0x3bd3b530	0.006460808
134	0xbd742dae	-0.059613876
135	0x3de58c01	0.11208344
136	0x3cc667e7	0.024219466
137	0x3bab03b0	0.0052189454
138	0x3dbef49e	0.09324001
139	0x3dd0bfd4	0.10192838
140	0x3d8f6fbe	0.07003735
141	0xbd0f7970	-0.03502792
142	0x3c7d1b0c	0.015448343
143	0x3dde2e4b	0.108486734
144	0x3d1ab81a	0.03777323
145	0x3d5a5caa	0.053311028
146	0xbb7bfa55	-0.003844877
147	0xbdc24e20	-0.094875574
148	0xbd47171d	-0.048606027
149	0x3cde2b1d	0.027120167
150	0x3cac482a	0.021030504
151	0x3bc5b5e3	0.0060336455
152	0xbd23f20b	-0.040025752
153	0xbdabf4dd	-0.08396313
154	0xbcf64ab3	-0.030064916
155	0x3d9f9c9b	0.07793542
156	0x3bf657a2	0.007517771
157	0xbd469374	-0.048480466
158	0x3c54ad97	0.01298084
159	0xbde2fb23	-0.11083057
160	0xbda9c9b5	-0.08290426
161	0x3d016224	0.031587735
162	0xbd3e5a79	-0.046473
163	0xbce45af7	-0.027875407
164	0x3cc77423	0.02434737
165	0xbd6e3d66	-0.058164023
166	0xbd82f177	-0.06393712
167	0x3d284df8	0.04108998
168	0xbda30ee0	-0.079618216
169	0x3b09a9eb	0.002100582
170	0xbd3abc39	-0.04558966
171	0x3c9b59e8	0.01896377
172	0x3b04a9ec	0.0020242883
173	0x3dc507b4	0.0962061
174	0xbc11a3a3	-0.008889112
175	0x3dab35ca	0.08359869
176	0xbca6925f	-0.020333467
177	0x3c87e5ee	0.016589131
178	0xbd525a50	-0.05135566
179	0xbd57bb3a	-0.052668788
180	0x3d0f9de3	0.035062682
181	0x3d702e74	0.05863805
182	0xbd9ae909	-0.07563979
183	0xbd356093	-0.044281553
184	0xbc0492a7	-0.008091605
185	0x3cd93dff	0.02651882
186	0xbd6615a6	-0.05617299
187	0xbcd95066	-0.026527595
188	0xbb680b18	-0.0035407003
189	0xbd52f784	-0.05150558
190	0x3d5d571b	0.05403815
191	0x3dbb8a25	0.09157208
192	0xbbcee8b0	-0.0063143596
193	0xbd74b9c5	-0.059747476
194	0xbcf5b489	-0.029993312
195	0xbd0aab36	-0.033854686
196	0xbd01aa30	-0.031656444
197	0x3d7a2c89	0.06107763
198	0x3dcd95b5	0.1003832
199	0xbda1604f	-0.078796975
200	0xbcb52890	-0.022114068
201	0xbdabf851	-0.08396972
202	0xbd590508	-0.052983314
203	0x3d0a272b	0.03372876
204	0x3d62f642	0.05541063
205	0x3dd22d01	0.1026249
206	0xbd800392	-0.06250681
207	0xbd1a20fe	-0.03762912
208	0x3d934bd4	0.071921974
209	0x3d8c7203	0.068576835
210	0x3d288bcc	0.041148946
211	0x3be2634c	0.0069088098
212	0xbde0dec0	-0.10979986
213	0xbd9b216d	-0.07574735
214	0x3d98ae10	0.07455075
215	0x3cde8bbf	0.027166246
216	0x3daa0d91	0.08303369
217	0x3cd09db7	0.02546583
218	0xbdcf031c	-0.10108015
219	0x3d9e1b0e	0.07720004
220	0xbd0585a3	-0.03259815
221	0x3c6df38f	0.014523401
222	0x3c9e0195	0.019287864
223	0x3d24159a	0.040059663
224	0x3cd9c079	0.026581036
225	0x3cb44b15	0.022008458
226	0xbcfe2471	-0.031023236
227	0x3b98c0e5	0.0046616667
228	0x3d98438b	0.07434758
229	0xbcaa1507	-0.02076198
230	0xbd95a2d7	-0.0730645
231	0xbdbc5668	-0.09196168
232	0x3cba3dfa	0.02273463
233	0xbc93b6fa	-0.018031586
234	0xbc1d919f	-0.009617238
235	0xbd8d9593	-0.06913295
236	0x3d21a651	0.039465252
237	0xbd06f16e	-0.03294509
238	0x3be6bba3	0.007041411
239	0x3d99a141	0.0750146
240	0xbcadb6bb	-0.021205297
241	0xbd46a8c0	-0.048500776
242	0x3c4a6e16	0.012355348
243	0xbd9d2fac	-0.07675108
244	0x3d39ef41	0.045394186
245	0x3d3dd97f	0.04635
246	0xbda06c5d	-0.07833169
247	0x3d891603	0.066936515
248	0xbd22b9ea	-0.039728083
249	0x3d86e4de	0.06586622
250	0xbc50730d	-0.012722743
251	0x3ca1fc0b	0.019773504
252	0x3d9352c9	0.071935244
253	0xbd224f99	-0.03962669
254	0xbdd2a700	-0.10285759
255	0xbd25d4fc	-0.04048632

encoder_lstm.bias_ih_l0 f4 [512]
0	0x3d480a23	0.048837792
1	0xbd4decc6	-0.050274633
2	0x3d8875ac	0.06663069
3	0xbcc04621	-0.02347094
4	0xbc64d5c7	-0.013966984
5	0xbc404926	-0.01173619
6	0x3cfb4833	0.030674076
7	0x3d980ada	0.07423945
8	0xbbd673b8	-0.0065445565
9	0xbd7870b8	-0.060654372
10	0x3d6d1f67	0.057891276
11	0xbd810f07	-0.06301694
12	0xbd239857	-0.039940204
13	0x3d835179	0.06412024
14	0x3dc34c25	0.09536008
15	0xbd9fc038	-0.07800335
16	0x3dc1d68b	0.09464749
17	0xbd67630b	-0.05649094
18	0xbd1aaaef	-0.03776067
19	0xbd3d48f7	-0.046212163
20	0x3d93a788	0.072096884
21	0x3d9669a4	0.07344368
22	0xbd12c19f	-0.035829183
23	0x3d935da4	0.07195595
24	0xbc891c92	-0.016737256
25	0xbd2c5410	-0.042072356
26	0xbcf3f20f	-0.029778508
27	0xbc510a0a	-0.012758741
28	0xbd9375ba	-0.07200189
29	0x3cc8cfc4	0.024513133
30	0x3cbfb3a0	0.023401082
31	0xbd971417	-0.07376879
32	0x3dcffee4	0.101560384
33	0x3dac99ef	0.08427798
34	0xbbdcdc26	-0.006740111
35	0x3da231f1	0.07919682
36	0xbd790821	-0.060798768
37	0x3db504ec	0.088388294
38	0xbd176128	-0.03695789
39	0xbd666b6d	-0.056254793
40	0xbd34d7ac	-0.044150993
41	0xbd8bcd36	-0.0682625
42	0x3c6dc5b1	0.014512465
43	0x3d79e0be	0.061005346
44	0x3d8a11b7	0.0674166
45	0xbc3f38eb	-0.011671285
46	0xbd88271a	-0.06648083
47	0x3bfb45dc	0.00766824
48	0x3c5496a6	0.0129753705
49	0xbbc05146	-0.0058690635
50	0xbd2c0034	-0.04199238
51	0x3d5ad248	0.053423196
52	0x3d53006d	0.051514078
53	0x3d8a5044	0.06753591
54	0xbcd35485	-0.025797138
55	0x3cd5d9be	0.026104804
56	0xbd38b5f9	-0.045095418
57	0x3ce7ce20	0.02829653
58	0x3cd9ead2	0.026601229
59	0xbcee57ee	-0.029094663
60	0xbc7ee07a	-0.015556449
61	0x3d709ec8	0.058745176
62	0xbd8e3a95	-0.069447674
63	0xbd8d6866	-0.06904678
64	0xbd109bb3	-0.035304736
65	0x3d6b5dd7	0.05746254
66	0xbd462d86	-0.04838326
67	0xbab015d8	-0.0013434244
68	0x3862cf1d	5.4075488e-05
69	0xbd583dc0	-0.052793264
70	0x3d0bbf9f	0.03411829
71	0xbd6b15b1	-0.057393733
72	0xb9c1f7be	-0.0003699641
73	0x38055615	3.178984e-05
74	0xbc995b9e	-0.018720444
75	0x3d8b43ac	0.06800017
76	0xbdc76169	-0.097353764
77	0xbdb81cdf	-0.08989882
78	0xbd4eb5fb	-0.05046652
79	0xbba00f7c	-0.0048846584
80	0x3d95fc89	0.07323558
81	0xbd0c7ffd	-0.034301747
82	0x3db5ecd5	0.08883063
83	0xbd87837a	-0.06616874
84	0x3c554922	0.0130179245
85	0xbdc7c5fb	-0.09754559
86	0xbd03d851	-0.032188717
87	0xbd1bcdd1	-0.03803808
88	0xbcf27da0	-0.029600918
89	0xbd8c1ca5	-0.06841401
90	0x3d87dd5f	0.0663402
91	0x3d6b1300	0.057391167
92	0xbd9ac88e	-0.07557784
93	0x3d22a166	0.039704703
94	0xbcac77db	-0.021053245
95	0x3da08d72	0.078394786
96	0xbdb58018	-0.088623226
97	0xbd0fe5b3	-0.035131168
98	0x3d440411	0.04785544
99	0x3cc1688d	0.023609424
100	0x3d4638a1	0.04839385
101	0x3d7310a0	0.059342027
102	0xbd68ccf1	-0.056836072
103	0xbd0bdccd	-0.03414612
104	0xbe05bc93	-0.13060217
105	0x3dca2577	0.09870427
106	0xbd3f47d7	-0.04669937
107	0x3d4affa7	0.049560215
108	0x3b2882ff	0.0025712845
109	0x3d99837d	0.074957825
110	0x3cf15868	0.0294611
111	0x3bfbd29d	0.007685019
112	0xbd2b61c7	-0.041841295
113	0x3cd41593	0.025889194
114	0x3cd08383	0.025453335
115	0xbc7b915a	-0.015354479
116	0xbbd83eb0	-0.00659927
117	0x3cbbb748	0.022914544
118	0x3d277e4d	0.040891934
119	0x3d6bbe10	0.057554305
120	0xbc02995d	-0.007971135
121	0x3c1321f3	0.008980262
122	0x3ce57118	0.028008029
123	0xbcf62679	-0.030047642
124	0x3dbbe831	0.09175146
125	0xbd21db6d	-0.0395159
126	0xbd067eb5	-0.03283568
127	0xbd06644e	-0.0328105
128	0xbd82e11b	-0.06390592
129	0x3d9bfbf0	0.07616413
130	0x3d0fe65e	0.035131805
131	0x3dd37a7d	0.10326097
132	0x3dbf1eeb	0.09332069
133	0x3d23808b	0.03991751
134	0x3b9fc9f9	0.004876372
135	0xbd6838bd	-0.056694735
136	0x3cbe696c	0.023243628
137	0xbd688908	-0.05677131
138	0x3d90ba50	0.07066786
139	0x3daf5624	0.08561352
140	0xbd52df0f	-0.051482257
141	0xbc2d21a9	-0.010567107
142	0xbd678a71	-0.056528512
143	0x3dabcad7	0.08388298
144	0xbce8e152	-0.028427754
145	0x3d9434f6	0.07236664
146	0x3d15e8b0	0.03659886
147	0x3d3ff280	0.046862125
148	0x3d49b288	0.049242526
149	0x3d944001	0.0723877
150	0xbd227460	-0.039661765
151	0x3d75da90	0.06002289
152	0xbced121a	-0.028939296
153	0xbd6d8552	-0.057988472
154	0x3d9c8191	0.076419
155	0x3d81e376	0.06342213
156	0x3dbcc45f	0.09217142
157	0x3db52a55	0.08845965
158	0x3da95569	0.08268244
159	0x3c1a1593	0.009404558
160	0x3d539a9e	0.051661126
161	0x3d61ba16	0.055109106
162	0x3dd2ee66	0.10299377
163	0xbd3eb286	-0.046556972
164	0x3d259525	0.04042544
165	0x3d785666	0.06062927
166	0xbca09a60	-0.019604862
167	0xbd209363	-0.03920306
168	0x3d8d16f0	0.068891406
169	0xbd938672	-0.07203378
170	0x3cbe1751	0.023204478
171	0x3d29ff76	0.041503392
172	0x3d7e694e	0.062112145
173	0x3d76b61a	0.06023226
174	0xbc90a277	-0.017655594
175	0x3d3e1fbf	0.046416994
176	0xbbb48c24	-0.00550987
177	0xbd8af808	-0.067855895
178	0xbcf97a4a	-0.03045382
179	0x3d781cfd	0.06057452
180	0xbc6a24eb	-0.0142910285
181	0xbcf9bc7f	-0.03048539
182	0xbcc37bb8	-0.023862705
183	0xbd1ba3fe	-0.037998192
184	0xbce4ac6f	-0.027914254
185	0xbd303eeb	-0.043028753
186	0x3d75f933	0.060052108
187	0x3dab873e	0.08375405
188	0xbd53a8f2	-0.05167479
189	0x3cec330c	0.028832935
190	0xbc5858c9	-0.013204762
191	0x3dc462f1	0.09589184
192	0x3d5c8d5e	0.053845756
193	0x3d7c4ee4	0.061598673
194	0xbd39e180	-0.04538107
195	0xbc7b61af	-0.015343114
196	0x3db6407d	0.08899019
197	0x3cd5ee70	0.026114672
198	0x3b25d31b	0.002530283
199	0x3d55eed4	0.052229717
200	0xbbfba81d	-0.007679953
201	0x3dd167e6	0.10224895
202	0xbd82fbad	-0.063956596
203	0x3d1ca1bb	0.038240176
204	0x3d6756c4	0.05647923
205	0x3d410ebc	0.047133192
206	0xbd6214e5	-0.055195708
207	0xbd0fbba4	-0.035091057
208	0xbc3ec1c0	-0.011642873
209	0xbd09b4a1	-0.033619527
210	0x3c8f7152	0.01751009
211	0x3d6098c7	0.0548332
212	0x3d179297	0.037005033
213	0xbc4af1c3	-0.012386742
214	0x3db8bdea	0.09020598
215	0xbcdfbf41	-0.027312877
216	0x3bd7ba3a	0.0065834792
217	0xbd5a29d6	-0.053262554
218	0x3b94e375	0.0045437166
219	0x3d9c8a76	0.07643597
220	0xbc9b4975	-0.018955925
221	0x3db3c167	0.08777123
222	0xbd026d83	-0.03184272
223	0x3daa9818	0.08329791
224	0xbd8f4a3c	-0.06996581
225	0x3d96d663	0.0736511
226	0xbd42915d	-0.04750191
227	0xbbb620b4	-0.0055580977
228	0xbd30004a	-0.042969026
229	0x3d6e3fdb	0.058166366
230	0xbd38bd9b	-0.045102697
231	0x3d686cd1	0.0567444
232	0x3c048aa1	0.008089692
233	0x3cdfb7c8	0.027309313
234	0xbd280afc	-0.0410261
235	0x3d89977c	0.067183465
236	0x3d202af9	0.039103482
237	0x3dd6810c	0.104738325
238	0xbd9d5c9a	-0.07683678
239	0x3d1b18be	0.037865393
240	0x3d9582ab	0.073003136
241	0xbbcabdea	-0.0061871903
242	0xbd6797b9	-0.05654118
243	0xbd591181	-0.05299521
244	0x3d95c1ba	0.07312341
245	0xbd6f04a1	-0.058354024
246	0x3da64dfd	0.08120344
247	0xbcb3a464	-0.021928973
248	0x3b8f0a3e	0.0043652346
249	0xbd80b96b	-0.06285366
250	0x3d983129	0.074312516
251	0xbcdbc05a	-0.026825119
252	0xbc5eca37	-0.013598016
253	0x3d2ff7fd	0.04296111
254	0xbd435213	-0.047685694
255	0x3d41ebd6	0.04734405

encoder_lstm.bias_hh_l0 f4 [512]
0	0xbd42813d	-0.047486532
1	0x3d84785f	0.064682715
2	0xbd667b1e	-0.056269757
3	0xbcc4a339	-0.024003612
4	0x3cee574a	0.029094357
5	0x3d920855	0.071304955
6	0xbd50e567	-0.051000025
7	0xbd858f40	-0.065214634
8	0x3c921ce1	0.017836036
9	0x3d341227	0.043962624
10	0x3d95cead	0.07314811
11	0xbd495217	-0.049150553
12	0xbceb3acd	-0.028714562
13	0x3d0d996a	0.034570135
14	0x3cef290f	0.029194383
15	0xbd824792	-0.06361307
16	0x3d98adfc	0.0745506
17	0xbd514fd4	-0.05110152
18	0xbbd812c7	-0.0065940353
19	0x3d0cd326	0.034381054
20	0x3dc59b6b	0.09648784
21	0xbc69063f	-0.014222681
22	0xbd891d69	-0.06695063
23	0xbd88412c	-0.066530555
24	0xbc30dea8	-0.010795273
25	0x3dadba89	0.084828444
26	0x3d85d48b	0.0653468
27	0x3cd34c16	0.025793117
28	0x3c5d4269	0.013504603
29	0xbd7cdec8	-0.0617359
30	0x3d45fd9e	0.04833757
31	0x39e910de	0.0004445379
32	0xbd90ed70	-0.070765376
33	0xbd194a26	-0.03742423
34	0x3da36970	0.07979095
35	0xbd8c1a4a	-0.06840952
36	0x3d8283f7	0.063728265
37	0xbd5ee1a5	-0.05441441
38	0x3c9d4691	0.019198688
39	0xbdd58f8a	-0.104277685
40	0x3d9b8c29	0.07595093
41	0x3c058011	0.008148209
42	0x3d3c8196	0.04602202
43	0xbd6e9517	-0.058247652
44	0x3d9ed0e4	0.077546865
45	0x3c38fd3f	0.011290847
46	0x3aa34694	0.0012456947
47	0xbc95da0d	-0.018292451
48	0xbccf2b66	-0.025289249
49	0xba22255f	-0.00061853783
50	0xbd39737f	-0.04527616
51	0x39de60ee	0.00042415358
52	0xbd8bc897	-0.06825369
53	0x3d30bbb7	0.04314777
54	0xbd89b628	-0.06724197
55	0xbd8f6ab2	-0.070027724
56	0x3dceefc8	0.101043284
57	0xbd979a8e	-0.07402526
58	0xbb83e06d	-0.0040245564
59	0xbb7a436f	-0.0038187166
60	0xbd287672	-0.041128583
61	0xbabb6319	-0.0014296501
62	0x3dcaeac6	0.09908061
63	0x3d3fdbee	0.0468406
64	0x3d87c46f	0.066292636
65	0xbd550f71	-0.05201668
66	0x3dd94e9b	0.10610696
67	0x3da81407	0.08206945
68	0x3d098376	0.033572637
69	0x3dc4b1b4	0.09604207
70	0xbd93f3fc	-0.07224271
71	0x3dc89832	0.09794654
72	0x3d301b30	0.042994678
73	0x3d9909b0	0.07472551
74	0xbd47b72d	-0.048758674
75	0xbd3462fe	-0.04403972
76	0xbd89287d	-0.06697176
77	0xbda1bfc5	-0.07897905
78	0x3d953f80	0.07287502
79	0xbbf44801	-0.0074548726
80	0xbcf390fe	-0.029732224
81	0x3cf8f0c5	0.030388245
82	0x3dca89dd	0.098895766
83	0x3dade322	0.08490588
84	0x3cf8c3e9	0.030366855
85	0xbdd85770	-0.105635524
86	0x3d1814f2	0.03712935
87	0x3db57794	0.08860698
88	0xbd5169fd	-0.05112647
89	0x3d2e84a6	0.042606972
90	0xbdb15540	-0.08658838
91	0xbda75522	-0.08170535
92	0x3d834027	0.064087205
93	0x3da1bf61	0.07897831
94	0x3d964c8b	0.07338818
95	0xbd8f61d0	-0.07001078
96	0x3cc11612	0.023570094
97	0xbd35a2f1	-0.044344846
98	0xbd77cb2c	-0.060496494
99	0xbddb9b0d	-0.10722933
100	0xbaad72d4	-0.0013233074
101	0xbd34750d	-0.04405694
102	0x3db2271d	0.086988665
103	0x3c5a64b0	0.01332967
104	0xbd8c2721	-0.06843401
105	0x3c3b8230	0.011444613
106	0x3bdd1118	0.0067464225
107	0x3d827ee0	0.06371856
108	0x3d41e9bf	0.04734206
109	0x3ccd414e	0.025055554
110	0xbd8f42e6	-0.06995182
111	0xbdd224f9	-0.10260958
112	0xbd3e3c23	-0.04644407
113	0xbc631d28	-0.013861932
114	0x3d11492c	0.035470173
115	0x3cf3ce36	0.029761415
116	0xbdb2b05e	-0.087250456
117	0x3d574884	0.05255939
118	0x3d79753e	0.060902826
119	0xbd26244f	-0.04056197
120	0xbd04fe62	-0.03246916
121	0x3d011028	0.03150955
122	0x3ce8ab17	0.028401894
123	0x3d510c8c	0.051037356
124	0x3de05c0d	0.10955057
125	0x3dad365d	0.084576346
126	0x3d85d0bb	0.06533953
127	0xbb4a5e7b	-0.0030879069
128	0x3d560552	0.052251168
129	0x3d1e008f	0.03857475
130	0xbcae37d4	-0.021266855
131	0xbd656519	-0.056004617
132	0xba305aa9	-0.00067273766
133	0xbd1f81d8	-0.038942188
134	0xbcbf5346	-0.023355138
135	0x3db8b805	0.09019474
136	0x3da58e7a	0.08083816
137	0xbd0ce48b	-0.034397643
138	0x3d0a8845	0.033821363
139	0x3dbb28e8	0.091386616
140	0x3d8412ca	0.06448896
141	0xbd29253b	-0.04129527
142	0xbd858358	-0.065191925
143	0xbccef347	-0.025262488
144	0x3d8a2039	0.06744427
145	0x3d76db04	0.060267463
146	0x3cf5b9bb	0.02999579
147	0x3d03f134	0.03221245
148	0xbd9115e5	-0.07084254
149	0x3daf71fc	0.08566663
150	0x3cd73aaa	0.02627309
151	0x3bbb9aad	0.005725226
152	0xbb8d9f6b	-0.0043219826
153	0x3d2c3087	0.042038467
154	0x3d394fce	0.045242123
155	0x3d8a5513	0.06754508
156	0xbcdd7018	-0.02703099
157	0x3dcb6585	0.09931473
158	0xbcb3b49d	-0.021936709
159	0x3bbde85c	0.0057955217
160	0x3dd7b9ab	0.1053346
161	0x3bc9b226	0.00615527
162	0x3d27a3a1	0.040927533
163	0xbd2f3a0d	-0.04277997
164	0x3d257ed3	0.040404152
165	0x3bd08b20	0.0063642412
166	0xbcef0bb3	-0.029180383
167	0xbd7435f9	-0.059621785
168	0xbc0f7dd0	-0.008758023
169	0x3b22ba76	0.0024830378
170	0xbcdc9515	-0.026926557
171	0x3cb1309b	0.021629622
172	0xbd12d9af	-0.03585213
173	0xbb29d792	-0.0025915843
174	0x3cd50759	0.02600448
175	0xbd34327c	-0.04399346
176	0xbd7302c2	-0.059328802
177	0x3bcf0990	0.0063182786
178	0x3daa20d0	0.0830704
179	0x3da0a741	0.07844401
180	0x3c26ed4f	0.010188415
181	0xbca6ad40	-0.020346284
182	0xbdaa861c	-0.083263606
183	0xbd783956	-0.060601555
184	0x3d9e21d7	0.07721298
185	0xbd41c865	-0.04731025
186	0xbda43f58	-0.08019894
187	0x3cad7ed9	0.02117865
188	0xbbe395ec	-0.0069453623
189	0x3c4306ae	0.011903448
190	0x3cc84acd	0.02444973
191	0xbd36aef9	-0.04460046
192	0xbd14f5f0	-0.036367357
193	0x3d0ee211	0.034883562
194	0x3be4d99d	0.0069839493
195	0xbd8170ae	-0.0632032
196	0x3b488732	0.003059816
197	0xbd64a4cb	-0.05582122
198	0x3d9ebfa0	0.07751393
199	0x3c25179c	0.01007643
200	0x3c8e037b	0.017335644
201	0x3d55cdc5	0.05219819
202	0xbd86a494	-0.065743595
203	0x3d0fb2df	0.035082694
204	0xbd0a0486	-0.03369572
205	0xbd81df38	-0.06341404
206	0x3d6e54f3	0.058186483
207	0xbd121bc6	-0.035671018
208	0x3d281719	0.041037653
209	0x3c72e652	0.01482542
210	0x3db77107	0.08957105
211	0xbd13ab24	-0.036051884
212	0x3d118daf	0.03553551
213	0x3d614937	0.055001464
214	0xbc1146cb	-0.008866976
215	0x3d97e654	0.074169785
216	0x3d665eb8	0.056242675
217	0xbd881a93	-0.06645694
218	0xbd0f4d0f	-0.0349856
219	0xbc65d6e2	-0.014028283
220	0x3bd8035a	0.0065921964
221	0xbb8adf98	-0.0042380802
222	0xbce5f33f	-0.02807009
223	0xbda62850	-0.08113158
224	0x3d000111	0.031251017
225	0x3be0e5cf	0.006863333
226	0xbd114618	-0.035467237
227	0x3ce78542	0.028261784
228	0x3dbbf82b	0.09178194
229	0x3d0672e8	0.032824427
230	0x3cf05c99	0.029341029
231	0xbd72d48b	-0.059284728
232	0x3db055e4	0.08610132
233	0xbcaa5697	-0.020793242
234	0x3d4d7de5	0.05016889
235	0x3cfcc461	0.03085536
236	0xbbd28035	-0.006423975
237	0xbbc154da	-0.0059000077
238	0xbd3bd693	-0.04585893
239	0x3cbe6cb4	0.023245193
240	0x3d4befc0	0.04978919
241	0xbd449ffb	-0.04800413
242	0x3a881801	0.001038313
243	0x3d743e23	0.05962957
244	0x3d33718b	0.043809455
245	0xbc55615b	-0.0130237
246	0x3d71e067	0.059051897
247	0x3d473dfb	0.048643094
248	0xbcde4204	-0.027131088
249	0xbc842fcf	-0.016136078
250	0x3b99aa2c	0.0046894755
251	0xbd7902d8	-0.060793728
252	0xbcc5e92e	-0.02415904
253	0xbc8cf9ad	-0.017208898
254	0x3c811165	0.015755365
255	0xbd2f5804	-0.042808548

attention.attention_weights.weight f4 [1, 128]
0	0x3a9978ab	0.0011708935
1	0x3d03abc3	0.032146227
2	0xbda030d9	-0.07821817
3	0xbdde6fc1	-0.10861159
4	0x3dabe9bc	0.08394191
5	0xbe1f184e	-0.15536615
6	0x3db8724d	0.09006176
7	0xbe43fbcb	-0.1913902
8	0xbd0f85ce	-0.035039715
9	0xbcbd33ed	-0.02309605
10	0x3cc7c2dc	0.024384908
11	0xbd1c0387	-0.0380893
12	0xbd11b872	-0.03557629
13	0xbe32bf7a	-0.17455855
14	0x3df9ee68	0.122036755
15	0xbbba9ccb	-0.0056949607
16	0xbddf0b50	-0.108908296
17	0x3de2f460	0.11081767
18	0x3d9f86c2	0.07789375
19	0x3e31adaa	0.17351404
20	0x3aa60233	0.001266545
21	0xbd1591c3	-0.036515962
22	0xbd0c5227	-0.034258034
23	0xbda5f661	-0.08103634
24	0xbd86d8ee	-0.06584345
25	0xbd700ea1	-0.0586077
26	0x3c75fc1f	0.015013724
27	0x3e966cc4	0.29379857
28	0x3dcb68f4	0.099321276
29	0x3e1dbc6c	0.15403908
30	0x3dad2ea2	0.0845616
31	0xbd839135	-0.064241804
32	0xbda3bdd4	-0.07995191
33	0xbc26816b	-0.010162692
34	0x3d65acbf	0.056072947
35	0xbdb2f9ed	-0.08739076
36	0x3c2654d9	0.010152065
37	0xbdd25d76	-0.102717325
38	0x3d056789	0.032569442
39	0xbeaaeb17	-0.33382484
40	0x3be1371d	0.006873025
41	0x3c2ee122	0.010673793
42	0x3dbd5846	0.092453524
43	0xbe89f105	-0.26941696
44	0x3bc83fcc	0.006111121
45	0xbe0d4d26	-0.13798961
46	0xbdc11fbc	-0.09429881
47	0x3e3f970c	0.18709964
48	0xbd8007d0	-0.0625149
49	0x3ea21ef1	0.3166423
50	0x3d9ac783	0.07557585
51	0xbeb97506	-0.36222094
52	0xbc725fb0	-0.0147933215
53	0x3e1f5fbb	0.15563862
54	0x3e14fef0	0.14550376
55	0x3d2e4362	0.04254473
56	0xbdb70761	-0.08936954
57	0x3d29abce	0.04142361
58	0xbead3d40	-0.33835793
59	0x3de88816	0.11354081
60	0xbea430cf	-0.32068488
61	0xbe0a9361	-0.13532783
62	0xbd7570e2	-0.059922107
63	0x3e2234cc	0.15840453
64	0xbda3403f	-0.07971238
65	0x3c864591	0.016390594
66	0xbdec6546	-0.11542754
67	0xbc6ecc55	-0.014575084
68	0x3d0a4db1	0.0337655
69	0x3dfc31ef	0.123142116
70	0xbdc3b573	-0.09556093
71	0x3deacabf	0.11464452
72	0xbe1ed921	-0.15512516
73	0x3dcff69d	0.101544596
74	0x3cb32b76	0.02187131
75	0x3e390976	0.18070015
76	0xbe24a795	-0.16079552
77	0x3e89c41b	0.2690743
78	0x3cb8fa8f	0.022580413
79	0x3e3264cb	0.17421262
80	0x3d2c9292	0.042131968
81	0xbccac5af	-0.024752466
82	0x3ad1d3b0	0.0016008522
83	0xbda4eb84	-0.080527335
84	0xbe25cce6	-0.16191444
85	0x3e22a5a2	0.15883496
86	0x3ea0994e	0.31366962
87	0xbc189884	-0.009313706
88	0xbe4388f3	-0.1909521
89	0x3dc16f10	0.094450116
90	0xbe40982b	-0.18808047
91	0x3ce4cb2c	0.027928911
92	0x3d385005	0.044998188
93	0x3e21e36f	0.15809415
94	0x3d1f8ed0	0.038954556
95	0x3cc4182a	0.023937304
96	0xbe71d073	-0.23614673
97	0xbd7bf247	-0.06151035
98	0xbd54b5b2	-0.05193109
99	0x3e7eb811	0.24874903
100	0x3dc2918a	0.095004156
101	0x3da01402	0.07816316
102	0x3c9c31cb	0.019066712
103	0xbd8eafb8	-0.069671094
104	0xbea0244f	-0.312777
105	0xbd1d2448	-0.03836468
106	0x3e63d033	0.2224739
107	0xbd18a2db	-0.037264686
108	0x3d284a45	0.041086454
109	0xbbde1aec	-0.0067781117
110	0x3e99d0de	0.30042166
111	0x3e71aa34	0.23600084
112	0x3cc04c39	0.023473846
113	0xbd14d9a7	-0.036340382
114	0xbda2ee8b	-0.07955655
115	0xbcf276a5	-0.02959759
116	0x3eb965f4	0.36210597
117	0xbcfd4b3f	-0.03091967
118	0x3e2dbaa2	0.16965726
119	0x3cfa7824	0.030574866
120	0xbd576d98	-0.05259475
121	0xbd84d1e2	-0.064853445
122	0xbe5e4c97	-0.21708904
123	0xbc8a6641	-0.016894462
124	0xbe25866d	-0.1616456
125	0x3d95a6e7	0.07307225
126	0x3c70f112	0.014705913
127	0x3cd984b2	0.026552532

decoder_lstm.weight_ih_l0 f4 [512, 128]
0	0x3d8eb856	0.06968753
1	0x3cd527ec	0.026020013
2	0x3d98e604	0.07465747
3	0x3e012283	0.12610821
4	0x3d72986d	0.059227396
5	0x3da62a01	0.0811348
6	0xbdf36f97	-0.118865184
7	0x3e1d32ba	0.15351382
8	0x3d766851	0.060158078
9	0xbda657da	-0.08122225
10	0x3b482fd4	0.0030546086
11	0x3d11afe8	0.035568148
12	0xbbe92ff2	-0.007116311
13	0x3c939d59	0.018019365
14	0xbc9da3b2	-0.019243095
15	0x3dbeec35	0.09322397
16	0x3c80e6e1	0.015735092
17	0xbd6009b3	-0.05469675
18	0xbdde9ec9	-0.108701296
19	0xbd4424ed	-0.047886778
20	0xbd3e1815	-0.046409685
21	0x3e0a0175	0.13477118
22	0x3cfad8d7	0.030620975
23	0x3e17c9eb	0.1482312
24	0xbe0c9246	-0.13727674
25	0xbdee9f7d	-0.11651514
26	0xbd1b83c0	-0.037967443
27	0x3df613ac	0.12015471
28	0xbb506891	-0.0031800608
29	0x3d5a4684	0.053289905
30	0xbe0e2eac	-0.13884991
31	0xbd1439d8	-0.036187977
32	0xbc84845d	-0.016176397
33	0xbdbcb7fc	-0.0921478
34	0x3def056f	0.11670958
35	0xbd925380	-0.071448326
36	0x3dd30bbb	0.10304972
37	0x3e1de338	0.15418708
38	0xbd17a1bf	-0.037019487
39	0xbdf1a99d	-0.11799929
40	0xbda34f1e	-0.07974075
41	0xbda2f982	-0.07957746
42	0x3d24df09	0.040251765
43	0xbd8524f1	-0.06501187
44	0xbd81e9b4	-0.063434035
45	0xbcdcb521	-0.026941838
46	0x3e44c693	0.19216375
47	0x3da7312d	0.081636764
48	0xbd881a8f	-0.06645691
49	0x3d887b8b	0.06664189
50	0xbd58ec5e	-0.052959792
51	0xbc5ad7df	-0.013357132
52	0x3de0e2b2	0.10980739
53	0xbda996db	-0.082807265
54	0xbdae9918	-0.08525294
55	0xbdf53e06	-0.11974721
56	0xbd3630a2	-0.044479974
57	0xbd54ba5b	-0.051935535
58	0xbdce623f	-0.10077333
59	0x3d622c23	0.055217873
60	0xbdbc7b34	-0.09203187
61	0x3cf769ce	0.030201819
62	0xbc42f8ce	-0.01190014
63	0x3d9c75c6	0.07639651
64	0xbdbdb683	-0.09263327
65	0xbd5d2e6f	-0.05399936
66	0x3dceb154	0.100924164
67	0xbc5e0a9f	-0.013552337
68	0x3c1812bc	0.00928181
69	0xbe007c37	-0.12547384
70	0x3b1e9ad6	0.0024201176
71	0xbe008205	-0.12549599
72	0x3d139267	0.036028292
73	0xbd8e30bc	-0.06942889
74	0xbb7d5f99	-0.0038661717
75	0x3e0c9ac8	0.1373092
76	0x3cab026b	0.020875176
77	0x3d7a3b41	0.061091665
78	0xbdb5a29d	-0.08868907
79	0xbcf841d0	-0.03030482
80	0x3e1662b0	0.14686084
81	0x3c8233bc	0.01589381
82	0x3d9f7586	0.07786088
83	0x3d8e7182	0.06955244
84	0xbd0f79a9	-0.035028134
85	0x3d4860ab	0.048920315
86	0x3d898c54	0.067162186
87	0xbe117e2a	-0.14208284
88	0x3e121714	0.14266616
89	0x3ce25049	0.027626174
90	0xbdac598a	-0.08415516
91	0xbaad038d	-0.0013199911
92	0x3cc33e2a	0.023833353
93	0xbd804a4a	-0.062641695
94	0x3e2494e7	0.16072427
95	0xbdb8880f	-0.09010326
96	0xbdf111d9	-0.11770982
97	0xbce9944e	-0.0285131
98	0xbd7744d1	-0.060368363
99	0x3d180adb	0.037119728
100	0x3e6025ba	0.21889392
101	0x3d04ee7e	0.032454006
102	0xbcb1efbc	-0.02172076
103	0xbde52364	-0.11188391
104	0xbbbdeaa9	-0.005795796
105	0xbcdddb8f	-0.027082233
106	0x3dba429c	0.09094736
107	0xbd1a1f12	-0.037627287
108	0x3cc305a6	0.023806404
109	0xbde9f931	-0.114244826
110	0xbd12aaf5	-0.03580757
111	0x3d71725b	0.05894695
112	0xbe074b36	-0.13212284
113	0x3e10d0f6	0.14142212
114	0xbca5dbda	-0.020246435
115	0xbdc48855	-0.09596316
116	0x3d30920d	0.043108035
117	0x3c9762a9	0.018479662
118	0xbb13ae37	-0.002253426
119	0xbe07992e	-0.13242027
120	0xbc8ca3fe	-0.017168041
121	0x3d0a6387	0.033786323
122	0xbd064f19	-0.032790277
123	0xbdef1696	-0.1167423
124	0x3c814fda	0.015785147
125	0xbd9cf977	-0.07664769
126	0xbdbe6d7f	-0.092982285
127	0xbd969d61	-0.073542364
128	0x3c6994fd	0.014256713
129	0x3d3dd114	0.04634197
130	0x3e0fb6b4	0.1403454
131	0x3dd6b7e5	0.10484294
132	0x3de33049	0.11093194
133	0x3e234037	0.15942465
134	0xbe007ef0	-0.12548423
135	0x3de1f687	0.110333495
136	0x3dc23de4	0.09484461
137	0xb70a6f6a	-8.251382e-06
138	0xbd238dc8	-0.039930135
139	0x3e053fd5	0.13012631
140	0x3dbc48ac	0.091935486
141	0x3c7e1f4c	0.015510391
142	0xbe03f684	-0.12887007
143	0x3d8902e1	0.06690002
144	0x3d2e503a	0.04255698
145	0xbde367b9	-0.11103768
146	0xbd908fdb	-0.07058688
147	0xbde525d2	-0.11188854
148	0xbc469a1c	-0.0121217035
149	0x3d9a0ebe	0.07522343
150	0xbdd6b12b	-0.10483011
151	0x3dce02f7	0.10059159
152	0xbddaab07	-0.10677152
153	0xbd153c68	-0.03643456
154	0xbca1274a	-0.019672055
155	0xbd00d651	-0.031454388
156	0xbdcc977b	-0.0998983
157	0x3d36fe9b	0.044676404
158	0xbc981101	-0.018562796
159	0xbdf2e26b	-0.11859592
160	0xbda65f1c	-0.081236094
161	0xbddf2bb2	-0.10897006
162	0x3d38f7ed	0.045158315
163	0xbce7dfb5	-0.028304914
164	0xbb224b5e	-0.002476416
165	0x3825a41b	3.94919e-05
166	0xbe0240cf	-0.12720035
167	0x3c9a9b61	0.018872919
168	0xbde2c71e	-0.11073135
169	0xbdbcdb0b	-0.09221467
170	0x3d53f1a9	0.051744137
171	0xbceba8de	-0.028767046
172	0xbe099632	-0.13436201
173	0x3dd261b1	0.102725394
174	0x3c88e754	0.016711868
175	0x3d843bca	0.06456716
176	0xbe05cf5b	-0.13067381
177	0x3d349136	0.044083796
178	0x3c03c6d8	0.0080430135
179	0x3b849dd0	0.004047133
180	0x3e0371b0	0.12836337
181	0xbd91f762	-0.07127263
182	0xbdcffcf3	-0.10155668
183	0xbdfd89c6	-0.12379794
184	0xbdbff6b2	-0.09373225
185	0xbd00892b	-0.031380814
186	0xbcbdd5ba	-0.023173202
187	0x3d0d50c8	0.034500867
188	0xbd55cce3	-0.05219735
189	0x3d295eeb	0.041350286
190	0x3d96ea50	0.0736891
191	0x3d99f180	0.075167656
192	0xbd0fa2b5	-0.03506728
193	0xbdfe80d2	-0.12426914
194	0x3d398b97	0.04529914
195	0xbd82487c	-0.063614815
196	0x3e0ebf0d	0.13940068
197	0xbd9666ec	-0.073438495
198	0x3cf35934	0.029705621
199	0xbca999bf	-0.020703195
200	0xbdd18dbf	-0.10232114
201	0xbe161703	-0.14657216
202	0xbccb0b8c	-0.02478578
203	0x3ac34a10	0.0014899392
204	0x3b943198	0.0045225136
205	0x3cfa97d1	0.03058997
206	0xbda07a8c	-0.07835874
207	0x3d667756	0.05626615
208	0x3e0520ab	0.13000743
209	0xbc5cb851	-0.013471679
210	0x3c0da26f	0.008644684
211	0x3d31406b	0.043274324
212	0xbe049cd7	-0.12950455
213	0xbc98e6ea	-0.018664796
214	0x3c4a0dd7	0.012332401
215	0xbe047f80	-0.12939262
216	0x3e50ddca	0.20397106
217	0xbdc6e3ce	-0.09711419
218	0xbdf54c39	-0.11977429
219	0x3c814eac	0.015784584
220	0xbbda2f4a	-0.0066584693
221	0xbd7885db	-0.06067453
222	0x3ca16d38	0.0197054
223	0xbdd55aa6	-0.104176804
224	0xbdb308bf	-0.087419026
225	0xbd2ba5b0	-0.04190606
226	0xbb68e3c0	-0.003553614
227	0x3dfdc393	0.123908184
228	0x3db1343a	0.086525396
229	0x3d2d2ba0	0.042277932
230	0xbde2b02c	-0.11068758
231	0xbdc5ceb8	-0.09658569
232	0xbd742025	-0.059600968
233	0xbcdf8e54	-0.027289547
234	0x3e0cf717	0.13766132
235	0xbdd6bf84	-0.104857475
236	0xbc40f3b0	-0.01177685
237	0xbcf0fb40	-0.02941668
238	0xbc217dfe	-0.009856699
239	0x3d96b4e7	0.07358723
240	0xbc0a0613	-0.0084243
241	0x3d474b36	0.04865571
242	0xbdef9193	-0.11697688
243	0xbe040604	-0.1289292
244	0xbd0ff433	-0.035144996
245	0xbdd1426e	-0.102177486
246	0xbcb1c370	-0.021699637
247	0xbd481a7b	-0.04885338
248	0x3cae6fdc	0.021293573
249	0x3d65df01	0.056120876
250	0xbd56b6a9	-0.052420292
251	0xbdae853e	-0.08521508
252	0xbdddd2f8	-0.10831255
253	0xbe1110f3	-0.14166622
254	0x3b996d2a	0.004682203
255	0xbdb5265c	-0.08845207
