Model/Weights/model.pth (torch, 931758 bytes, 12 tensors)

embedding.weight f4 [64, 6]
-0.02259622 -0.08875843 -0.038006548 0.106103 0.32947513 0.008973597 0.13299498 -0.24445131
-0.2337771 -0.13810278 0.27126047 -0.06272707 0.39318237 -0.04581903 0.11538307 -0.19571893
0.1240415 0.22308196 0.29839444 -0.04237584 0.026550677 -0.3904711 -0.040484898 -0.09187084
-0.008746136 0.13419284 -0.18154854 0.103029884 -0.36863333 0.14279559 0.24802157 0.34375608
-0.14551067 0.33467096 -0.20930319 0.20407462 -0.17540702 0.19642192 -0.23964958 0.22402607
0.30536658 -0.3700038 -0.1672861 -0.2519037 -0.08415862 0.37890846 0.3457142 0.39169198
-0.22114713 0.13976605 0.06015452 -0.38112402 -0.3166527 0.2581581 -0.0910745 -0.1220564
0.31848103 -0.12213821 -0.28007698 -0.055084933 0.029756427 -0.295066 0.3203315 -0.29341167
0.14564447 -0.07761081 0.018507548 -0.12573089 -0.21398811 -0.11883454 -0.1978463 0.034053847
-0.23249257 0.08586579 -0.091143705 0.22952083 0.31026196 0.20302783 0.14983562 -0.22805074
-0.23096132 0.020522298 0.11246898 0.08987377 -0.11137864 -0.2978963 -0.13044737 -0.28846255
0.048417903 0.2164802 0.29964486 0.11789401 -0.22042994 0.1782738 0.11915085 0.14817457
0.11921791 0.040879983 -0.22307199 0.27652943 -0.41752103 0.32169035 0.24852073 0.18139441
0.15045738 -0.15147758 -0.05441431 0.080277964 -0.03863674 0.06305115 0.30401498 -0.10664358
0.12590942 -0.07587263 -0.22569962 -0.07852938 -0.30750418 -0.0553832 0.3012224 -0.033139214
-0.25375542 -0.16847615 -0.16594969 0.08314475 -0.21618034 -0.19576515 -0.30196404 0.12622257
-0.12748471 0.05906881 -0.15386204 -0.3016341 -0.3773649 -0.11416857 0.3114867 -0.13488391
-0.02703005 -0.103063785 0.35414484 -0.21757363 0.06403077 0.3675342 0.10990526 -0.19903615
-0.011611211 0.06078196 0.35528678 0.12434927 0.036833946 0.11031305 -0.34880894 -0.2192563
0.09414018 0.29122075 0.24344678 0.3021712 0.22818458 0.04372719 0.2263255 0.07570706
0.24469545 0.2768351 0.15070905 -0.19756477 0.042272776 0.1887203 -0.35872757 0.36823538
-0.2461629 -0.35705033 0.14557478 0.22339058 -0.10239132 -0.12665018 -0.18224683 0.3803119
0.33837348 -0.035956003 -0.33005735 -0.3445348 0.2756215 -0.34709033 -0.18187071 -0.13859966
-0.11589852 0.042725284 -0.16234079 0.33819273 -0.31714356 -0.07874015 -0.20057276 0.024992138
-0.31734267 0.34535697 0.31122974 -0.24791943 0.19437009 0.37286046 -0.0028256162 -0.118010856
-0.2594012 0.32741803 0.02867729 -0.05812979 0.022018766 -0.37340596 0.3857199 -0.08473037
0.13578874 0.31373617 -0.30957168 -0.04538265 0.33099934 0.05146234 0.25403255 0.3313129
-0.22235961 -0.11021057 -0.055547934 0.34880993 -0.08908598 -0.0012788961 0.3412118 0.24921916
0.20343469 -0.36935517 -0.27986366 0.0075129108 0.3997738 0.258937 -0.15133844 0.24837166
-0.17107525 -0.2635712 0.07007831 -0.4062286 -0.32715455 0.12827568 -0.25519308 -0.35530743
-0.10642155 0.25654367 0.27109084 0.18237966 -0.101655275 0.31935784 -0.21088262 -0.31793758
-0.026959095 0.3669097 0.30250192 0.1857392 0.16553812 0.05658386 0.16258821 0.252155
00000000: b51b b9bc fbc6 b5bd c1ac 1bbd 884c d93d
00000010: f7b0 a83e fe05 133c d62f 083e 7251 7abe
00000020: 4463 6fbe d16a 0dbe a7e2 8a3e 0d77 80bd
00000030: 334f c93e bcac 3bbd f64d ec3d 8b6a 48be
00000040: 7809 fe3d 996f 643e 28c7 983e 4a92 2dbd
00000050: ce80 d93c d4eb c7be 7ed3 25bd c726 bcbd
00000060: f44b 0fbc d969 093e dce7 39be 5501 d33d
00000070: 82bd bcbe 0239 123e 5ef9 7d3e cc00 b03e
00000080: c000 15be fe59 ab3e 9353 56be f0f8 503e
00000090: e69d 33be d422 493e b366 75be 1767 653e
000000a0: 0259 9c3e 2371 bdbe 0c4d 2bbe 86f9 80be
000000b0: 5b5b acbd 4a00 c23e 7401 b13e da8b c83e
000000c0: 6574 62be d51e 0f3e 9664 763d b022 c3be
000000d0: 4d20 a2be 4c2d 843e 4485 babd b5f8 f9bd
000000e0: f20f a33e 9923 fabd 4066 8fbe bda0 61bd
000000f0: c0c3 f33c e412 97be 7e02 a43e 0e3a 96be
00000100: d323 153e 6bf2 9ebd 249d 973c 99bf 00be
00000110: b31f 5bbe 865f f3bd 3898 4abe 0c7c 0b3d
00000120: 8812 6ebe 67da af3d 8da9 babd 8207 6b3e
00000130: a8da 9e3e 87e6 4f3e 826e 193e 2286 69be
00000140: 2081 6cbe 611e a83c 2356 e63d bd0f b83d
00000150: 7c1a e4bd dd85 98be ff93 05be 5db1 93be
00000160: da51 463d fcac 5d3e 0d6b 993e 6a72 f13d
00000170: 63b8 61be 688d 363e 5c05 f43d 13bb 173e
00000180: 8528 f43d c571 273d fc6c 64be 4495 8d3e
00000190: 51c5 d5be 99b4 a43e 387c 7e3e 75bf 393e
000001a0: 8011 1a3e f01c 1bbe 8ae1 5ebd c668 a43d
000001b0: 8f41 1ebd f620 813d daa7 9b3e f367 dabd
000001c0: 66ee 003e 1c63 9bbd cd1d 67be 03d4 a0bd
000001d0: 3071 9dbe 7fd9 62bd d339 9a3e fcbc 07bd
000001e0: 3bec 81be 0385 2cbe b7ee 29be cb47 aa3d
000001f0: 615e 5dbe a976 48be 089b 9abe 7d40 013e
00000200: 5a8b 02be 23f2 713d 038e 1dbe c96f 9abe
00000210: f935 c1be 36d1 e9bd 2f7b 9f3e 021f 0abe
00000220: 206e ddbc 1b13 d3bd 7952 b53e 9fcb 5ebe
00000230: 9022 833d 712d bc3e 0216 e13d 22d0 4bbe
00000240: f33c 3ebc 81f6 783d 26e8 b53e d4aa fe3d
00000250: 31df 163d cfeb e13d 1697 b2be b984 60be
00000260: 91cc c03d e31a 953e 1d4a 793e 2fb6 9a3e
00000270: 38a9 693e 481b 333d dfc1 673e 4e0c 9b3d
00000280: 7291 7a3e 55bd 8d3e 7953 1a3e 6b4e 4abe
00000290: 3826 2d3d e53f 413e 24ab b7be 5989 bc3e
000002a0: 2112 7cbe 4dcf b6be 8e11 153e 80c0 643e
000002b0: 8ab2 d1bd 96b0 01be ea9e 3abe 3eb8 c23e
000002c0: 4a3f ad3e 9a46 13bd 47fd a8be de66 b0be
000002d0: 431e 8d3e d3b5 b1be 513c 3abe 12ed 0dbe
000002e0: 345c edbd b500 2f3d aa3c 26be 9927 ad3e
000002f0: a460 a2be 8442 a1bd f262 4dbe 50bc cc3c
00000300: bd7a a2be a1d2 b03e 8159 9f3e 97de 7dbe
00000310: f408 473e 91e7 be3e f92d 39bb adaf f1bd
00000320: 3cd0 84be 56a3 a73e a3ec ea3c 8119 6ebd
00000330: b360 b43c 112f bfbe 147d c53e 1e87 adbd
00000340: 340c 0b3e 07a2 a03e 2e80 9ebe 28e3 39bd
00000350: bf78 a93e 2dca 523d 8e10 823e d8a1 a93e
00000360: 3db2 63be 14b6 e1bd 3b86 63bd 3797 b23e
00000370: b672 b6bd a2a0 a7ba 50b3 ae3e 4f33 7f3e
00000380: 2f51 503e 1f1c bdbe 4a4a 8fbe dd2e f63b
00000390: 27af cc3e 6493 843e 77f8 1abe 2455 7e3e
000003a0: 5a2e 2fbe cef2 86be 3885 8f3d 32fd cfbe
000003b0: cd80 a7be b35a 033e aba8 82be dbea b5be
000003c0: 8bf3 d9bd b159 833e 6bcc 8a3e bcc1 3a3e
000003d0: a430 d0bd df82 a33e 9df1 57be b7c8 a2be
000003e0: 52d9 dcbc 97db bb3e 88e1 9a3e 6b32 3e3e
000003f0: d382 293e 7ac4 673d 867d 263e 761a 813e

embedding.bias f4 [64]
0.1452577 -0.030676436 0.34523374 -0.08269367 0.096980706 0.04810792 0.2689778 0.29825255
0.20763424 0.23137453 -0.018748099 0.30632964 -0.13630842 0.44173834 0.21934824 0.3290011
0.07727506 0.057436712 0.28086343 -0.10993846 0.06845662 -0.08912241 0.33433193 -0.30675095
0.21634413 0.2932095 -0.14290035 -0.029735813 -0.13432935 0.053221963 0.38481283 -0.110368624
-0.2496977 0.34439495 0.37658718 -0.053183205 0.32723445 -0.16633432 0.024780381 0.10841855
0.07738185 0.25171047 -0.16006692 0.27627328 0.2514545 -0.06665031 -0.37018394 -0.34897706
0.15181237 -0.11739523 0.042829536 -0.35093138 0.37290782 -0.36251432 0.3529738 -0.31461546
0.22631034 0.22314146 0.1620278 -0.23110455 -0.27576113 -0.337714 -0.43099654 0.30539548
00000000: 6fbe 143e 264d fbbc 7ac2 b03e 4d5b a9bd
00000010: d29d c63d cf0c 453d 75b7 893e 8fb4 983e
00000020: 129e 543e 72ed 6c3e 9d95 99bc 3dd7 9c3e
00000030: 6f94 0bbe 872b e23e d39c 603e d572 a83e
00000040: 6342 9e3d c242 6b3d 55cd 8f3e 6a27 e1bd
00000050: fc32 8c3d cf85 b6bd 8e2d ab3e 760e 9dbe
00000060: 5189 5d3e 8e1f 963e 7854 12be 8598 f3bc
00000070: a28d 09be 46ff 593d 3006 c53e f208 e2bd
00000080: c1b0 7fbe 8954 b03e 09d0 c03e a2d6 59bd
00000090: 468b a73e 8b53 2abe 3a00 cb3c 8b0a de3d
000000a0: 607a 9e3d 32e0 803e 95e8 23be b173 8d3e
000000b0: a5be 803e f57f 88bd c088 bdbe 1fad b2be
000000c0: b474 1b3e e96c f0bd 066e 2f3d 47ad b3be
000000d0: c6ed be3e 7a9b b9be fbb8 b43e 4715 a1be
000000e0: e6bd 673e 327f 643e 9eea 253e aca6 6cbe
000000f0: 9030 8dbe d9e8 acbe 94ab dcbe cc5c 9c3e

encoder_lstm.weight_ih_l0 f4 [512, 64]
0.034571756 -0.009090347 0.09275972 -0.004122686 0.016211072 0.06243624 -0.034995817 -0.0181809
0.07301763 0.006050642 -0.008109554 0.054766025 0.06522061 -0.056388047 0.044683404 0.03577327
0.023252947 -0.07645041 -0.005242189 -0.0148125375 -0.05931337 0.024008412 0.0251012 -0.013307768
0.03057791 -0.060150463 -0.054714315 0.07905192 0.07565136 0.081292026 0.05807815 0.04779484
0.08077827 -0.015570625 -0.05471709 0.060053743 0.07303448 -0.058959316 0.01908614 -0.08024983
-0.022531547 0.07484118 -0.058029175 0.0743219 0.049193937 0.05382826 0.08529401 0.017631086
0.0067281914 -0.039922386 -0.06926689 -0.023845633 0.09186976 -0.008726088 0.0057467655 -0.024063278
0.07849925 0.013096506 -0.027227296 -0.04265808 -0.008061822 -0.019360285 -0.15357797 0.061588664
0.06594779 0.03882987 0.08293427 0.022206401 0.037351776 -0.058632676 0.008326682 -0.044261944
0.022889677 0.037467215 -0.021837082 -0.05411531 0.042796552 0.020654058 0.031911768 0.006712238
0.019188557 -0.062488537 -0.016784063 -0.025206752 0.06780514 -0.035101302 -0.03840525 -0.009133923
0.09481634 -0.005117813 -0.07787981 0.08383047 0.07795784 0.005748396 -0.020158453 -0.063289285
0.036180995 0.06528817 -0.0782985 -0.004613691 -0.044844244 0.0073786858 0.0061415476 -0.031239785
0.07873297 -0.013135325 0.0032064114 0.059908498 0.022640465 -0.02468007 0.0060524982 -0.061090227
-0.016453868 -0.0629671 0.06987092 0.06734008 0.06088209 -0.01503909 0.04330477 -0.030897992
0.071859814 0.045114346 -0.019275019 -0.083035186 -0.009104503 -0.049217254 0.04263328 0.04544249
0.013685219 -0.017943114 -0.034726046 0.017200988 -0.05456835 -0.064601876 0.036349185 0.004404586
-0.042623248 0.06514474 -0.06339084 0.020597532 0.014479305 0.08620481 0.024415284 -0.02191333
0.07770444 0.055487048 0.041236866 -0.06555931 0.06501244 -0.014032277 0.05314245 0.074218504
-0.07069349 0.1279124 -0.0053211604 0.10458465 -0.08497885 -0.022971809 0.066519625 -0.015477607
0.058061313 -0.051490206 0.07044528 -0.021947123 -0.02647585 -0.066878684 0.06307809 0.049707353
0.006047797 -0.037356805 0.007355406 -0.052171938 -0.020976124 0.08982048 -0.0433317 0.020464057
0.053728048 0.07210274 0.0063510044 -0.007358212 0.09091237 0.004445659 0.016297607 0.06436244
-0.0566455 -0.09309045 0.07366356 -0.09601203 0.016390732 -0.02571339 -0.11863002 -0.021180395
-0.036447998 0.025393656 -0.029993597 -0.0050456896 -0.013219606 0.038297616 0.0055891075 -0.004345942
-0.08242957 0.070801415 0.073594004 0.045261133 0.051949408 0.004211179 -0.0051330207 0.048052967
0.028645918 -0.0032725222 -0.08693359 -0.04096314 -0.05782685 0.032650486 0.021996135 -0.06466488
-0.091222584 -0.0089829555 -0.011491215 0.02468867 -0.05467141 0.027005648 -0.05407439 -0.018166762
0.06419399 0.02971427 0.012491155 -0.027885953 -0.019323187 0.041815873 -0.060510736 0.1022953
0.059342697 -0.036143318 0.0012767554 0.035526644 -0.007997413 0.020625515 -0.04128997 -0.025178408
0.09607338 0.024565393 0.028371876 0.043424476 -0.044538617 -0.03452744 0.048713923 0.04403286
-0.043886624 -0.052753426 0.056831706 -0.07446715 0.06631939 -0.020919906 0.046142496 0.078022525
00000000: 1d9b 0d3d aeef 14bc cff8 bd3d 9917 87bb
00000010: 15cd 843c 25bd 7f3d c657 0fbd 1cf0 94bc
00000020: 448a 953d 7744 c63b efdd 04bc 5752 603d
00000030: 6292 853d 27f7 66bd f205 373d fe86 123d
00000040: f77c be3c 0892 9cbd abc6 abbb 49b0 72bc
00000050: 94f2 72bd 4aad c43c 08a1 cd3c d308 5abc
00000060: 867e fa3c 5560 76bd 1e1c 60bd f9e5 a13d
00000070: 1aef 9a3d 6f7c a63d 5be3 6d3d 86c4 433d
00000080: 146f a53d ef1b 7fbc 071f 60bd eafa 753d
00000090: 1a93 953d 537f 71bd 895a 9c3c 065a a4bd
000000a0: 1494 b8bc 5546 993d 00b0 6dbd 1536 983d
000000b0: 957f 493d 067b 5c3d a0ae ae3d 116f 903c
000000c0: 2978 dc3b a885 23bd cddb 8dbd eb57 c3bc
000000d0: 3626 bc3d def7 0ebc 5d4f bc3b 5a20 c5bc
000000e0: 37c4 a03d ba92 563c c70b dfbc 3dba 2ebd
000000f0: bb15 04bc 7699 9ebc 8b43 1dbe 6544 7c3d
00000100: a30f 873d 120c 1f3d 71d9 a93d 33ea b53c
00000110: 2dfe 183d d128 70bd a36c 083c 034c 35bd
00000120: 2283 bb3c 3977 193d aee3 b2bc 04a8 5dbd
00000130: 704b 2f3d b332 a93c eab5 023d 55f2 db3b
00000140: 5231 9d3c fbf3 7fbd bb7e 89bc 647e cebc
00000150: 6cdd 8a3d 62c6 0fbd d34e 1dbd 73a6 15bc
00000160: 122f c23d 54b3 a7bb 737f 9fbd 4faf ab3d
00000170: 5ca8 9f3d 0a5d bc3b 5723 a5bc d09d 81bd
00000180: 8632 143d ceb5 853d f75a a0bd 722e 97bb
00000190: 99ae 37bd e7c8 f13b 093f c93b 94ea ffbc
000001a0: c03e a13d 8c35 57bc a822 523b 9d62 753d
000001b0: 7f78 b93c dc2d cabc 0954 c63b bf39 7abd
000001c0: 43ca 86bc e5f4 80bd 7c18 8f3d 99e9 893d
000001d0: 805f 793d 8466 76bc 5860 313d c91d fdbc
000001e0: 3d2b 933d d2c9 383d a5e6 9dbc 5a0e aabd
000001f0: 0e2b 15bc 0898 49bd 3ca0 2e3d e821 3a3d
00000200: f837 603c 70fd 92bc e63c 0ebd 16e9 8c3c
00000210: 1083 5fbd fd4d 84bd e2e2 143d 5854 903b
00000220: b795 2ebd 9b6a 853d 0fd3 81bd 28bc a83c
00000230: 9b3a 6d3c 268c b03d 9002 c83c 9583 b3bc
00000240: 8123 9f3d 6346 633d fde7 283d f643 86bd
00000250: 3e25 853d a3e7 65bc e6ab 593d dfff 973d
00000260: c0c7 90bd 78fb 023e 215d aebb 7a30 d63d
00000270: 6409 aebd 602f bcbc 713b 883d ca95 7dbc
00000280: b3d1 6d3d 65e7 52bd 9d45 903d 74ca b3bc
00000290: e2e3 d8bc b1f7 88bd 162f 813d f099 4b3d
000002a0: 992c c63b 7303 19bd 9e05 f13b 3eb2 55bd
000002b0: 1fd6 abbc cdf3 b73d 957c 31bd 3da4 a73c
000002c0: f111 5c3d 9aaa 933d 161c d03b 281d f1bb
000002d0: 4430 ba3d e4ac 913b 8f82 853c 74d0 833d
000002e0: 1d05 68bd 35a6 bebd ecdc 963d f5a1 c4bd
000002f0: db45 863c e3a4 d2bc 4cf4 f2bd 8282 adbc
00000300: 7f4a 15bd 5b06 d03c 22b5 f5bc 5056 a5bb
00000310: 0c97 58bc f6dd 1c3d d524 b73b 6768 8ebb
00000320: d6d0 a8bd 5500 913d 74b8 963d bd63 393d
00000330: e7c8 543d eefd 893b e632 a8bb 30d3 443d
00000340: d8aa ea3c d077 56bb 3d0a b2bd f7c8 27bd
00000350: d9db 6cbd 84bc 053d 3d31 b43c 056f 84bd
00000360: e8d2 babd 3f2d 13bc a645 3cbc e53f ca3c
00000370: 21ef 5fbd f33a dd3c 1c7d 5dbd 76d2 94bc
00000380: 2378 833d 576b f33c b4a7 4c3c 1571 e4bc
00000390: a94b 9ebc 1f47 2b3d 1bda 77bd 3380 d13d
000003a0: 5411 733d 040b 14bd cd58 a73a 6384 113d
000003b0: 9507 03bc d7f6 a83c ac1f 29bd f342 cebc
000003c0: 1fc2 c43d 5d3d c93c 236c e83c dddd 313d
000003d0: 206e 36bd a56c 0dbd 4088 473d cd5b 343d
000003e0: 76c2 33bd fa13 58bd 5dc8 683d 3c82 98bd
000003f0: 76d2 873d 3960 abbc eaff 3c3d 46ca 9f3d

encoder_lstm.weight_hh_l0 f4 [512, 128]
0.111589335 0.14463554 0.12908553 -0.006221453 -0.023304842 -0.068856336 -0.12725972 -0.05730624
0.034063388 -0.10852744 0.09990368 -0.10482249 -0.054282345 -0.07295866 -0.10576733 0.057682965
0.0629483 -0.048775762 0.0023485501 0.012836816 0.002405306 0.10394479 0.016143477 0.0026615143
0.09397418 -0.09558106 0.054021493 -0.05053987 0.011733359 -0.08426906 0.038394697 -0.05994166
-0.0291185 -0.033203755 0.08549631 0.10543946 0.017497115 0.0298613 0.13300824 0.02180705
-0.0494246 -0.0032607028 -0.030635124 0.10308512 -0.00071479264 0.024939783 -0.10394531 -0.009082562
0.036341313 0.02299042 0.0039631557 -0.063887686 0.08023008 -0.10595532 -0.06330793 0.030939307
0.02053417 0.05385837 -0.077332295 0.104602195 0.03856135 -0.00605724 -0.070365846 -0.06602117
0.11150143 0.11336824 0.050850727 0.10255468 0.0680077 0.026627397 -0.104936525 0.10167925
-0.0037820456 -0.085790396 0.010824446 0.032919034 0.018182132 0.003932921 -0.02302261 -0.09592792
0.024445849 -0.0031133182 0.09535973 -0.118504114 0.053694014 0.058942813 0.027961526 -0.039156135
-0.111645654 0.00908297 0.0319661 -0.013317644 -0.10802076 0.04155209 -0.100245774 -0.067475334
-0.0999937 0.05167907 -0.068581894 -0.106352456 -0.011621887 0.11320019 0.04896457 -0.0050927247
-0.036337476 0.042391464 0.07702487 0.10071557 -0.051015746 0.106610976 -0.034656998 -0.030698316
0.022058735 -0.037664115 -0.007740019 0.018735893 -0.086558945 -0.0032128086 -0.017384589 -0.0005513546
-0.07187257 -0.08951094 0.11865631 -0.09950382 -0.060685378 -0.0057460098 0.08869569 0.02937963
0.13391389 0.12828547 0.072403766 -0.03811567 -0.025513679 -0.13187559 0.016167557 0.07154787
0.044295363 0.06566927 0.11878404 -0.019618627 -0.03127759 -0.026329676 -0.0054444564 -0.058204696
0.1012448 -0.03365296 -0.10308956 -0.0921067 -0.055214077 -0.04987813 0.016632736 0.05995676
0.035787866 -0.106934085 0.08614113 -0.07730485 0.037679046 -0.027304389 -0.07887729 -0.09168652
0.030613732 -0.13832597 0.10942569 0.048614193 0.12974088 0.1217483 0.09104394 -0.012994608
0.0063705556 0.036229305 -0.031127738 0.18143713 0.11558823 0.022487687 -0.092384554 0.071844466
-0.1155442 -0.09246619 -0.06872816 -0.057245065 0.113131136 0.022616886 -0.14179486 0.0053605046
-0.006496798 0.04238513 -0.010651512 0.044255417 -0.03297229 -0.051645122 -0.0011928477 0.023665702
-0.003399522 -0.031257745 0.086299926 0.13106354 0.14284995 0.1364912 -0.027705772 0.10184349
0.0018411608 -0.11217126 0.030004436 0.008704556 -0.10692749 -0.040977545 -0.04993121 0.044849057
0.14054075 -0.052565366 0.1272688 -0.054959327 0.0048998385 0.019588616 -0.042376205 -0.08818872
0.04045905 -0.06423769 0.108226456 -0.039620586 -0.113841526 0.051390626 -0.108214915 -0.06412571
-0.052529875 -0.0390889 0.029694436 0.010523219 -0.028240219 -0.05046934 0.015315901 -0.013672115
0.058952067 0.007212864 -0.05108392 0.06963326 0.042806804 0.11648815 -0.012973703 -0.069296725
-0.04122431 -0.015147967 0.10173827 -0.1211433 -0.12907512 -0.11954886 -0.01847837 0.009416507
0.0038845576 -0.016430423 0.03412422 0.012041942 -0.04009334 0.03993522 0.023020463 0.0014945451
00000000: f388 e43d 571b 143e ff2e 043e 55dd cbbb
00000010: cce9 bebc 8d04 8dbd 5f50 02be f3b9 6abd
00000020: 0d86 0b3d a243 debd 4d9a cc3d 2cad d6bd
00000030: 2a57 5ebd 5a6b 95bd 8b9c d8bd f944 6c3d
00000040: 0aeb 803d 18c9 47bd 22ea 193b 8251 523c
00000050: 57a2 1d3b 02e1 d43d 533f 843c cd6c 2e3b
00000060: 8975 c03d 01c0 c3bd a445 5d3d e502 4fbd
00000070: 463d 403c 4295 acbd c243 1d3d 6385 75bd
00000080: ec89 eebc a900 08bd b018 af3d a5f0 d73d
00000090: 1c56 8f3c af9f f43c 5033 083e b3a4 b23c
000000a0: 7371 4abd 84b1 55bb 83f6 fabc 4b1e d33d
000000b0: ec60 3bba 844e cc3c 47e1 d4bd 07cf 14bc
000000c0: a1da 143d 6856 bc3c 5cdd 813b 8cd7 82bd
000000d0: ab4f a43d 1aff d8bd 97a7 81bd 6e74 fd3c
000000e0: 4737 a83c 989a 5c3d 6560 9ebd ad39 d63d
000000f0: 82f2 1d3d d07b c6bb f81b 90bd 1b36 87bd
00000100: dd5a e43d 9c2d e83d da48 503d 3008 d23d
00000110: 9f47 8b3d b321 da3c f6e8 d6bd 363d d03d
00000120: 32dc 77bb e0b2 afbd 0459 313c 1cd6 063d
00000130: b2f2 943c bcdf 803b ea99 bcbc db75 c4bd
00000140: a942 c83c d008 4cbb f64b c33d 49b2 f2bd
00000150: 41ee 5b3d 056e 713d 920f e53c 2f62 20bd
00000160: 7aa6 e4bd bdd0 143c e3ee 023d 3f32 5abc
00000170: fd39 ddbd 8632 2a3d a84d cdbd 8230 8abd
00000180: 7fc9 ccbd 6fad 533d aa74 8cbd 51cf d9bd
00000190: ba69 3ebc 80d5 e73d 138f 483d dfe0 a6bb
000001a0: 9bd6 14bd aca2 2d3d 37bf 9d3d f743 ce3d
000001b0: e3f5 50bd db56 da3d 7ff4 0dbd 097b fbbc
000001c0: 85b4 b43c b045 1abd fc9f fdbb 047c 993c
000001d0: d145 b1bd fc8d 52bb 206a 8ebc c888 10ba
000001e0: ed31 93bd 8351 b7bd 1402 f33d a9c8 cbbd
000001f0: 3b91 78bd 0649 bcbb 16a6 b53d 8dad f03c
00000200: b920 093e 445d 033e 6d48 943d 2d1f 1cbd
00000210: 1002 d1bc 650a 07be d371 843c b187 923d
00000220: 0e6f 353d 9c7d 863d 0c45 f33d 3eb7 a0bc
00000230: ee1c 00bd 55b1 d7bc 6967 b2bb 0c68 6ebd
00000240: 6f59 cf3d b0d7 09bd 9f20 d3bd 70a2 bcbd
00000250: 2828 62bd 034d 4cbd 6041 883c 3895 753d
00000260: 4c96 123d 4200 dbbd c36a b03d 0152 9ebd
00000270: 5855 1a3d 74ad dfbc 6b8a a1bd 24c6 bbbd
00000280: a6c9 fa3c 53a5 0dbe 931a e03d ad1f 473d
00000290: cbda 043e 2c57 f93d 3f75 ba3d 56e7 54bc
000002a0: 18c0 d03b 2e65 143d 99ff febc a8ca 393e
000002b0: 86b9 ec3d 1938 b83c 1d34 bdbd 3123 933d
000002c0: 70a2 ecbd ea5e bdbd 59c1 8cbd cd79 6abd
000002d0: 4cb1 e73d 0c47 b93c ac32 11be 2ca7 af3b
000002e0: 17e3 d4bb 089c 2d3d ae83 2ebc 2b45 353d
000002f0: f40d 07bd d689 53bd 5459 9cba 93de c13c
00000300: 84ca 5ebb 1f08 00bd 04be b03d 8535 063e
00000310: 4247 123e 59c4 0b3e 37f7 e2bc 5293 d03d
00000320: 1b53 f13a 0cba e5bd ddcb f53c 8e9d 0e3c
00000330: cdfc dabd 12d8 27bd ab84 4cbd a5b3 373d
00000340: eae9 0f3e c84e 57bd c152 023e 081d 61bd
00000350: d38e a03b 4e78 a03c ac92 2dbd 4a9c b4bd
00000360: 64b8 253d 0d8f 83bd d5a5 dd3d 3249 22bd
00000370: bf25 e9bd fa7e 523d c89f ddbd 5754 83bd
00000380: 9129 57bd af1b 20bd bf41 f33c 9469 2c3c
00000390: 0858 e7bc f0b8 4ebd 8bef 7a3c 0201 60bc
000003a0: b977 713d e359 ec3b 5f3d 51bd e29b 8e3d
000003b0: 3056 2f3d 5791 ee3d a88f 54bc 71eb 8dbd
000003c0: d2da 28bd 2e2f 78bc 275c d03d fa19 f8bd
000003d0: 452c 04be 08d6 f4bd f35f 97bc b147 1a3c
000003e0: 1094 7e3b 1899 86bc d7c5 0b3d 914b 453c
000003f0: ea38 24bd 1d93 233d 6995 bc3c 9de4 c33a

encoder_lstm.bias_ih_l0 f4 [512]
-0.0905353 -0.05964409 -0.033791814 -0.044636503 0.049630713 0.07567135 0.07963333 0.048661947
-0.053130765 -0.046791263 -0.0014287597 0.027058136 -0.034060672 -0.06898373 0.052909315 0.027121963
0.10544984 -0.07596587 -0.0667864 0.0773413 0.03740746 -0.085844554 0.059206434 -0.018124644
0.043667857 0.033352103 0.011820778 0.052442163 -0.081442825 0.035531007 0.07709672 0.026210267
-9.1769085e-05 0.0058679753 -0.08065241 -0.06272578 -0.059128992 -0.029228287 -0.037805926 0.0021670682
0.021596871 0.050109725 0.06594966 -0.04045616 -0.101382904 0.07377788 -0.06799118 0.057851948
-0.02454954 0.06547725 0.02415243 0.056109607 0.012339313 -0.015269678 -0.017638985 0.04411532
0.08414683 -0.016926935 0.017811622 0.059032425 -0.03446757 -0.14352344 -0.0008915386 0.09189123
0.07766075 -0.00071224547 -0.091778316 0.07313621 -0.040984314 0.09787307 0.024848625 -0.049749635
-0.022655401 -0.053211715 -0.016533643 -0.099478215 0.026306378 0.08652833 0.025647974 -0.06744535
-0.0040063206 -0.07175204 -0.028020691 0.02709998 -0.08245241 0.080849126 -0.0068881754 0.050182186
-0.036790106 -0.05190731 0.062722154 -0.011434294 -0.020979472 0.06083046 0.0057193255 -0.009507102
0.11781818 -0.072211176 -0.03518425 -0.030211532 -0.025028298 0.020485716 0.0068932083 -0.03797212
-0.0617996 -0.0026378245 0.017146543 -0.08774038 -0.04913042 0.053734012 0.034751393 -0.06653151
-0.055453017 -0.10131808 0.0007615617 -0.051508296 -0.035613842 -0.04338826 -0.09185708 -0.09084196
-0.023038128 0.09219684 -0.08931324 0.039040916 0.036929965 0.021302493 0.040598754 -0.059939843
0.07317461 0.028317194 0.064671576 0.052547995 0.038576942 0.062071443 -0.07483168 -0.029871909
-0.05267718 0.03780546 -0.05227906 -0.10171499 0.030050436 0.06580725 0.06451601 0.06366124
0.010837035 0.010376962 0.040029548 -0.056907985 -0.011245687 -0.010749823 0.01548697 0.10142737
-0.027638692 0.00083279173 -0.030252729 0.060425814 -0.04716792 0.019342652 0.029229525 0.024816051
0.036354374 0.07343453 0.095357634 -0.0026162076 0.043828614 0.07626933 0.04307987 0.010688741
-0.06569322 0.092089675 -0.0400769 0.06050354 -0.08558019 0.10274842 0.076020025 0.057889495
0.06643565 0.034221496 0.0758354 -0.036433548 0.057826024 0.08251151 0.03966809 0.011171037
0.10158102 -0.09020704 -0.06131571 -0.045204666 -0.02406496 0.034039132 -0.044433806 -0.061478652
0.09833749 0.017160444 0.05385776 -0.023615943 -0.008662024 -0.0365525 0.067103416 0.0021749423
-0.014211353 0.041786823 0.055095967 0.06936944 -0.0011187274 -0.012966116 0.07696507 -0.041303683
0.03180229 -0.043907836 0.070783086 0.01104826 -0.035727266 0.06863619 0.018645277 0.07121459
0.0234411 0.10100953 -0.032063164 -0.071347795 -0.073268496 0.12810078 0.06888605 0.087463036
0.06749502 0.072186224 0.09887672 -0.0023478204 0.02580108 -0.06016231 0.12165952 0.022880811
0.015170754 -0.04509438 -0.0701812 0.037245587 0.07357725 0.039350517 0.016207421 -0.07077838
0.08630882 -0.005777428 -0.035214115 0.033426993 -0.06165395 -0.10143912 0.016489143 -0.05160665
0.011311991 0.053954218 0.05529448 -0.016896788 -0.06666498 0.10224239 -0.028583847 0.012363869
00000000: 926a b9bd 5c4d 74bd 4969 0abd c4d4 36bd
00000010: 9349 4b3d 95f9 9a3d cd16 a33d c051 473d
00000020: a59f 59bd 32a8 3fbd 3845 bbba 06a9 dd3c
00000030: 3483 0bbd 5847 8dbd 70b7 583d e12e de3c
00000040: 16f6 d73d fe93 9bbd 4fc7 88bd 1e65 9e3d
00000050: 9138 193d 45cf afbd 7282 723d 227a 94bc
00000060: 11dd 323d 379c 083d f0ab 413c 98cd 563d
00000070: 7fcb a6bd f688 113d e3e4 9d3d eab6 d63c
00000080: 2774 c0b8 2548 c03b 172d a5bd 6076 80bd
00000090: 3e31 72bd 2970 efbc 63da 1abd 5f05 0e3b
000000a0: eceb b03c db3f 4d3d 9e10 873d 5cb5 25bd
000000b0: d7a1 cfbd db18 973d f63e 8bbd 2af6 6c3d
000000c0: 1e1c c9bc f018 863d 51db c53c 30d3 653d
000000d0: d42a 4a3c ac2d 7abc a27f 90bc 44b2 343d
000000e0: 2c55 ac3d 5baa 8abc aee9 913c fccb 713d
000000f0: de2d 0dbd cff7 12be 25b6 69ba 7831 bc3d
00000100: 990c 9f3d fcb5 3aba 45f6 bbbd 70c8 953d
00000110: 2bdf 27bd ad71 c83d 588f cb3c 46c6 4bbd
00000120: d297 b9bc 87f4 59bd 9071 87bc 3cbb cbbd
00000130: 7980 d73c c435 b13d b31b d23c ca20 8abd
00000140: 7447 83bb bcf2 92bd a68b e5bc c700 de3c
00000150: cfdc a8bd 3a94 a53d 34b6 e1bb d68b 4d3d
00000160: 39b1 16bd c29c 54bd 7974 803d e856 3bbc
00000170: 24dd abbc 5c29 793d 2e69 bb3b adc3 1bbc
00000180: a84a f13d 74e3 93bd 5c1d 10bd 2d7e f7bc
00000190: 2508 cdbc a9d1 a73c 6ce0 e13b a788 1bbd
000001a0: 9421 7dbd 5adf 2cbb e876 8c3c 3ab1 b3bd
000001b0: fb3c 49bd 3218 5c3d 7a57 0e3d ac41 88bd
000001c0: b422 63bd db7f cfbd 8aa3 473a 5dfa 52bd
000001d0: d2df 11bd e3b7 31bd 911f bcbd 590b babd
000001e0: 75ba bcbc b2d1 bc3d dce9 b6bd 5ee9 1f3d
000001f0: e043 173d 9182 ae3c e14a 263d 7b83 75bd
00000200: 92dc 953d 76f9 e73c 8872 843d 913c 573d
00000210: db02 1e3d a03e 7e3d 5a41 99bd efb5 f4bc
00000220: 07c4 57bd e6d9 1a3d 9122 56bd f34f d0bd
00000230: 552c f63c f4c5 863d f820 843d d360 823d
00000240: d28d 313c 2204 2a3c 06f6 233d 5918 69bd
00000250: d43f 38bc 0720 30bc 0fbd 7d3c 27b9 cf3d
00000260: 8a6a e2bc b54f 5a3a 92d4 f7bc 0f81 773d
00000270: 2633 41bd 7b74 9e3c c272 ef3c 084b cb3c
00000280: 53e8 143d d864 963d dd4a c33d ae74 2bbb
00000290: a285 333d 1833 9c3d 8574 303d d41f 2f3c
000002a0: 2b8a 86bd 8399 bc3d ad27 24bd 8fd2 773d
000002b0: ab44 afbd c36d d23d 63b0 9b3d 891d 6d3d
000002c0: 6a0f 883d d72b 0c3d 974f 9b3d 583b 15bd
000002d0: fbda 6c3d cbfb a83d 027b 223d ba06 373c
000002e0: b609 d03d 78be b8bd 2f26 7bbd 8728 39bd
000002f0: e123 c5bc 9e6c 0b3d 3900 36bd 0ad1 7bbd
00000300: 2a65 c93d 0f94 8c3c f499 5c3d 3976 c1bc
00000310: 29eb 0dbc 13b8 15bd 846d 893d 7a89 0e3b
00000320: bcd6 68bc a928 2b3d 4fac 613d 9111 8e3d
00000330: 43a2 92ba d56f 54bc dd9f 9d3d 0d2e 29bd
00000340: 1e43 023d b4d8 33bd b9f6 903d c303 353c
00000350: c156 12bd 2191 8c3d fbbd 983c f4d8 913d
00000360: 8d07 c03c 16de ce3d aa54 03bd cb1e 92bd
00000370: cb0d 96bd da2c 033e 2114 8d3d d21f b33d
00000380: d43a 8a3d 5fd6 933d e17f ca3d e4dd 19bb
00000390: c95c d33c c16c 76bd a028 f93d 8a70 bb3c
000003a0: c18e 783c e2b4 38bd 29bb 8fbd d48e 183d
000003b0: abaf 963d 022e 213d 6dc5 843c 41f4 90bd
000003c0: aec2 b03d 9450 bdbb ad3c 10bd beea 083d
000003d0: da88 7cbd 50bf cfbd 3d14 873c 7f61 53bd
000003e0: ee55 393c 19ff 5c3d 777c 623d 226b 8abc
000003f0: a687 88bd 7564 d13d ac28 eabc d391 4a3c

encoder_lstm.bias_hh_l0 f4 [512]
0.00076412974 0.07820591 -0.04175436 -0.074147716 -0.008690713 0.059556857 -0.027107239 -0.01933336
0.018806102 -0.016580256 -0.08709436 0.05005822 -0.09576616 -0.08498294 0.02547765 0.01610422
0.06764021 -0.036383748 -0.07147336 0.03484642 0.073839895 0.01742496 0.06661547 -0.06773527
0.018373642 -0.088754214 0.09442174 -0.011475234 -0.016502786 -0.02792567 -0.0036050328 0.026313212
0.019611087 -0.07444892 0.051785275 -0.08757861 -0.053147614 -0.02513677 -0.028790968 -0.04569393
-0.09644822 -0.009178387 0.030557988 -0.052792765 -0.0643812 0.023052102 0.022193143 -0.00562679
0.101646416 -0.09606448 0.074179985 0.09038185 -0.04400747 -0.058696933 -0.07188491 0.09447349
-0.065606125 0.044407953 -0.07735952 -0.0044321693 -0.09286508 -0.04855959 0.026795901 0.0036870423
0.09150558 0.034749486 0.0033549955 -0.047777697 0.04760928 -0.022846488 -0.040757325 -0.06283949
-0.034439232 -0.10254543 -0.05634914 -0.06842704 0.07378045 -0.011794961 0.067823745 0.024003835
0.06655028 -0.003112823 0.03958634 0.07462859 0.07445029 0.006727618 0.0747323 0.08382112
-0.05394472 0.015983064 0.093784764 -0.033168413 -0.054136578 0.07028322 0.06364189 -0.007201973
0.092405245 -0.054375652 0.009990312 0.04877822 -0.025970528 0.043515075 -0.052010007 0.09815752
-0.08651602 -0.03127546 -0.09202953 -0.02557721 0.004889499 -0.06583268 -0.037485693 0.00015228435
0.06614019 -0.09915205 0.008436896 -0.08651878 -0.0017443096 -0.065829515 -0.01643067 0.0039793886
0.07139697 0.0652619 0.01127961 -0.04555856 0.02016449 -0.06681474 -0.006381165 0.08957613
0.11051999 0.05336632 -0.062395558 0.05287348 -0.018129682 -0.048009228 -0.04514247 0.044440113
0.07544679 0.00048412636 0.04590389 -0.098611236 -0.08451435 0.022546997 0.12908906 -0.033572584
-0.064745635 -0.058836535 0.0133231385 0.0451491 -0.023700586 -0.018377071 -0.02013432 0.061333753
0.0851892 -0.031311747 0.06324744 -0.021873655 0.08901144 0.06980631 0.0017402953 0.026334718
0.012278669 -0.03129017 -0.025619848 0.123236954 -0.052780528 0.044940498 0.035029978 -0.015639517
0.095407315 0.0023742067 -0.06855414 0.045533143 -0.044099417 -0.0012200389 -0.04827726 -0.01328762
0.04994791 0.022389445 0.07869078 0.09907358 0.010254972 0.10032154 0.094860025 0.00045858446
-0.021331035 -0.07061453 0.092076994 0.11072861 0.082976595 -0.008213935 0.1095958 0.08999839
-0.05101888 -0.08248699 0.050881747 -0.033068955 -0.09897114 0.019074371 0.023227748 0.11504291
0.07590569 0.039208747 0.113513894 0.09597456 -0.043381315 -0.020593505 -0.005726817 0.056220476
-0.037324518 0.042870566 -0.069243 0.098563775 -0.052881844 0.09470723 0.09411085 0.003981894
-0.039636105 0.07218124 0.029192865 0.088024676 0.06496881 0.09280082 0.09271695 -0.032702625
-0.027267348 0.12280295 -0.069645986 -0.012064265 0.057361003 0.09012958 -0.02856124 0.09186217
-0.023122847 -0.04642263 0.028794002 -0.020310152 0.061936818 8.366655e-05 0.013691391 -0.09975156
-0.018770179 0.038465884 -0.074479885 -0.05208095 -0.035391703 -0.073001966 0.057312097 -0.0040038866
0.03928879 0.037025347 -0.04044229 0.07389489 0.0869613 -0.0369093 0.012818462 0.002528572
00000000: e14f 483a 6c2a a03d 9f06 2bbd c2da 97bd
00000010: 7e63 0ebc e4f1 733d 0010 debc ff60 9ebc
00000020: 410f 9a3c 51d3 87bc 875e b2bd d909 4d3d
00000030: 0c21 c4bd 890b aebd 81b6 d03c ffec 833c
00000040: f386 8a3d 2007 15bd a060 92bd 1fbb 0e3d
00000050: 5f39 973d cabe 8e3c b16d 883d cab8 8abd
00000060: 5284 963c c5c4 b5bd 2f60 c13d 9f02 3cbc
00000070: da30 87bc 60c4 e4bc 6a42 6cbb ce8e d73c
00000080: 6ea7 a03c ad78 98bd cc1c 543d 6a5c b3bd
00000090: 50b1 59bd a1eb cdbc 09db ebbc 8f29 3bbd
000000a0: a586 c5bd f260 16bc bf54 fa3c 3a3d 58bd
000000b0: 4ada 83bd c3d7 bc3c 65ce b53c f060 b8bb
000000c0: ff2b d03d 74bd c4bd adeb 973d 1f1a b93d
000000d0: 2d41 34bd 326c 70bd 6538 93bd 517b c13d
000000e0: 815c 86bd 1de5 353d ab6e 9ebd bb3b 91bb
000000f0: 0c30 bebd 6ce6 46bd 1483 db3c 4ea2 713b
00000100: 4767 bb3d 7a55 0e3d 7cdf 5b3b 8cb2 43bd
00000110: f301 433d 8f28 bbbc 27f1 26bd feb1 80bd
00000120: 2710 0dbd 5703 d2bd 5bce 66bd 7a23 8cbd
00000130: 341a 973d a73f 41bc 2de7 8a3d b1a3 c43c
00000140: 834b 883d 8100 4cbb 4925 223d e0d6 983d
00000150: 6579 983d 5a73 dc3b 400d 993d 68aa ab3d
00000160: 24f5 5cbd eaee 823c 3a12 c03d 9adb 07bd
00000170: 51be 5dbd a6f0 8f3d ae56 823d 87fe ebbb
00000180: f63e bd3d 01b9 5ebd 68ae 233c accb 473d
00000190: 25c0 d4bc dd3c 323d 7208 55bd cf06 c93d
000001a0: 502f b1bd b21a 00bd fa79 bcbd 4c87 d1bc
000001b0: 1738 a03b 49d3 86bd 998a 19bd 85ae 1f39
000001c0: 8274 873d 3b10 cbbd e83a 0a3c c230 b1bd
000001d0: 51a1 e4ba a0d1 86bd 9d99 86bc 8865 823b
000001e0: 9338 923d 08a8 853d 1dce 383c 9d9b 3abd
000001f0: 0030 a53c 2bd6 88bd 1719 d1bb b173 b73d
00000200: 4e58 e23d a496 5a3d 7c92 7fbd dd91 583d
00000210: b384 94bc 53a5 44bd 50e7 38bd d606 363d
00000220: d983 9a3d 57d2 fd39 b805 3c3d b0f4 c9bd
00000230: dc15 adbd 7bb4 b83c ec2f 043e 6883 09bd
00000240: 5c99 84bd 94fe 70bd 4b49 5a3c 43ee 383d
00000250: bb27 c2bc 838b 96bc bbf0 a4bc 1a39 7b3d
00000260: ad77 ae3d bf40 00bd e087 813d 6130 b3bc
00000270: a14b b63d 9cf6 8e3d 9f1a e43a e8bb d73c
00000280: 782c 493c 1f2a 00bd b7e0 d1bc a863 fc3d
00000290: 6530 58bd 8713 383d 987b 0f3d 721e 80bc
000002a0: e964 c33d 9498 1b3b 1d66 8cbd f680 3a3d
000002b0: 97a1 34bd b6e9 9fba 60be 45bd 51b4 59bc
000002c0: 2e96 4c3d 126a b73c a228 a13d 17e7 ca3d
000002d0: 7804 283c 6175 cd3d f945 c23d 2a6e f039
000002e0: 6cbe aebc 5a9e 90bd dd92 bc3d aec5 e23d
000002f0: a2ef a93d be93 06bc c373 e03d 1351 b83d
00000300: 2cf9 50bd f0ee a8bd 6169 503d 5073 07bd
00000310: 62b1 cabd db41 9c3c 1e48 be3c 9e9b eb3d
00000320: 7174 9b3d 5a99 203d f979 e83d 4f8e c43d
00000330: 9bb0 31bd b6b3 a8bc 06a8 bbbb 7147 663d
00000340: 98e1 18bd 0c99 2f3d 46cf 8dbd cedb c93d
00000350: a29a 58bd ddf5 c13d 30bd c03d 8c7a 823b
00000360: 7859 22bd c2d3 933d e025 ef3c 4846 b43d
00000370: 5e0e 853d 5b0e be3d 62e2 bd3d 30f3 05bd
00000380: c65f dfbc 1d80 fb3d 8ea2 8ebd 32a9 45bc
00000390: 5ff3 6a3d db95 b83d 43f9 e9bc 3c22 bc3d
000003a0: 206c bdbc a825 3ebd 66e1 eb3c 7a61 a6bc
000003b0: 76b1 7d3d 2376 af38 db51 603c 8c4a ccbd
000003c0: ebc3 99bc 678e 1d3d e988 98bd d652 55bd
000003d0: e4f6 10bd 0e82 95bd 17c0 6a3d 0933 83bb
000003e0: 48ed 203d e4a7 173d d1a6 25bd 3456 973d
000003f0: c418 b23d 352e 17bd 8704 523c 66b6 253b

attention.attention_weights.weight f4 [1, 128]
-0.21671145 0.075677626 -0.0237497 0.24736519 0.09497556 0.100110434 0.08350656 0.045015793
0.04575202 0.18129884 0.16907722 -0.0810438 -0.032804113 0.19907124 -0.021679677 -0.16168962
-0.080501564 -0.12069825 -0.04638626 0.11571188 0.120727845 -0.03332921 -0.08594333 -0.41286474
-0.38673073 0.16363949 -0.29027978 -0.082519285 -0.13913867 -0.02119665 0.19521897 0.20554659
-0.40437773 -0.07521554 0.14911866 0.12578318 -0.27528265 -0.009699608 0.13379858 -0.12724313
0.12226569 -0.3022734 0.0871478 -0.115869306 -0.17909887 0.23792759 0.08877809 0.2520485
0.08458258 -0.04541894 0.1663964 -0.0033836463 -0.07270075 0.15686662 -0.12978356 0.16756558
-0.061715323 -0.1503258 -0.03208651 -0.117896855 0.22067504 0.38346493 0.074871935 0.088371925
-0.23434512 0.017484238 -0.30942193 -0.061517518 -0.2881995 0.24689193 -0.15369748 -0.029309833
0.023673164 0.051605575 0.11104817 0.107526384 -0.030081566 0.09905344 0.013400446 0.031744845
-0.05846337 -0.1556151 -0.10665188 0.2948832 -0.061889317 0.18649906 0.042760137 0.0073796306
0.4505406 0.10723967 -0.14560601 0.27880588 0.0429155 0.2063925 0.3337922 -0.1817509
0.003971011 0.121533275 0.07611937 -0.089609995 0.17435169 -0.2801788 0.4413626 0.2230044
-0.40266633 -0.07170287 0.11743957 0.17135094 -0.016655454 -0.049896237 -0.36353686 -0.09758366
-0.13732326 -0.08171005 0.045763947 -0.44218636 0.0047524143 0.19711316 0.10676173 -0.14617425
0.11231324 0.30738646 0.039632827 0.24731039 0.12795077 0.24387832 -0.021501798 -0.13793507
00000000: 9be9 5dbe dffc 9a3d bb8e c2bc 4d4d 7d3e
00000010: 8c82 c23d b306 cd3d 7d05 ab3d 7b62 383d
00000020: 7866 3b3d 67a6 393e 9422 2d3e 4bfa a5bd
00000030: 9b5d 06bd 55d9 4b3e 9499 b1bc f791 25be
00000040: 01de a4bd a530 f7bd 85ff 3dbd 5afa ec3d
00000050: 2940 f73d 3684 08bd 0e03 b0bd 0263 d3be
00000060: 9201 c6be 1c91 273e 8d9f 94be dfff a8bd
00000070: 5e7a 0ebe 99a4 adbc 7be7 473e ce7a 523e
00000080: 990a cfbe 9b0a 9abd 90b2 183e 4ecd 003e
00000090: d9f1 8cbe 1beb 1ebc 7f02 093e 064c 02be
000000a0: 6f66 fa3d 94c3 9abe 8c7a b23d e34c edbd
000000b0: b265 37be 4aa3 733e 4ad1 b53d 800c 813e
000000c0: a239 ad3d 3609 3abd d163 2a3e 2ac0 5dbb
000000d0: 21e4 94bd a5a1 203e fbe5 04be 5096 2b3e
000000e0: 35c9 7cbd 02ef 19be 256d 03bd e873 f1bd
000000f0: a3f8 613e 8455 c43e 7556 993d 57fc b43d
00000100: 2bf8 6fbe 1b3b 8f3c 8d6c 9ebe cbf9 7bbd
00000110: e38e 93be 3dd1 7c3e df62 1dbe 2d1b f0bc
00000120: 39ee c13c 5e60 533d 396d e33d cb36 dc3d
00000130: 9e6d f6bc 88dc ca3d 8b8d 5b3c e206 023d
00000140: 4977 6fbd 9159 1fbe 4d6c dabd eefa 963e
00000150: a77f 7dbd 9cf9 3e3e 4125 2f3d d4d0 f13b
00000160: 42ad e63e 79a0 db3d be19 15be a5bf 8e3e
00000170: 2ac8 2f3d 8e58 533e d0e6 aa3e e81c 3abe
00000180: 411f 823b 70e6 f83d 79e4 9b3d 7285 b7bd
00000190: 4089 323e 9873 8fbe 47fa e13e 445b 643e
000001a0: 482a cebe f4d8 92bd 2884 f03d 9f76 2f3e
000001b0: 0571 88bc ff5f 4cbd 8121 babe f1d9 c7bd
000001c0: 789e 0cbe 9957 a7bd fa72 3b3d 4066 e2be
000001d0: 24ba 9b3b 08d8 493e e5a5 da3d b4ae 15be
000001e0: 7c04 e63d c261 9d3e 0856 223d ef3e 7d3e
000001f0: 8705 033e 3dbb 793e 8a24 b0bc da3e 0dbe

decoder_lstm.weight_ih_l0 f4 [512, 128]
0.011258464 0.040135745 0.046464972 0.08663339 -0.09167302 -0.14262743 -0.067059875 0.07571875
-0.14808412 0.1684399 -0.04512427 -0.11766466 -0.14724298 -0.10569527 -0.1028864 0.002701722
0.064183995 0.097927414 -0.10381341 -0.11893844 0.0051354193 -0.16833077 0.018011255 0.04547483
0.030312315 0.03641559 0.13272119 -0.011419145 0.11304715 -0.031464115 -0.022105953 -0.12292932
0.02576414 0.04409979 0.007090467 0.08577234 0.069246344 0.027412245 0.07278815 -0.15801173
-0.004982355 -0.066728346 -0.090364456 -0.007890288 0.07236855 -0.029253248 -0.093938924 -0.009005159
-0.05008938 0.013871494 -0.16232249 -0.06565713 0.03458061 0.037920818 0.03722029 -0.107071705
0.054412447 0.07134073 -0.034932233 -0.0021258735 -0.0042158803 0.022510257 0.15992126 -0.11293045
0.14268832 0.06993992 -0.04585633 0.09008152 0.22269276 0.18421404 0.0042058416 0.103333674
-0.13340572 -0.08929221 -0.13364142 0.06557859 -0.060657233 0.09960399 -0.13333237 -0.054629486
0.07244342 -0.03008299 0.15879734 -0.011432555 0.0419932 0.039776675 0.11268547 0.009906094
0.01121767 -0.063005105 0.19516543 0.008355355 -0.12452152 0.11117146 0.024279816 -0.038599107
-0.08362728 0.084130436 -0.11127109 -0.11290835 0.0033694543 -0.05082435 0.005842842 -0.08666296
-0.10536789 0.056445327 0.086209424 0.046138544 0.025478184 0.08303679 -0.07552067 -0.023454048
0.13292508 -0.0791087 0.14979109 -0.036803022 -0.044210594 -0.17048703 0.0015115311 -0.02778744
-0.1666583 -0.18370336 0.012503057 -0.19544755 0.023691513 0.032281533 0.09455869 0.00031061808
0.0482024 0.08939101 0.13620669 0.08705386 -0.12620431 0.028541861 0.017194122 0.15798841
0.01489958 0.08713079 0.08789321 -0.029044587 -0.14060377 -0.029262165 -0.09380284 -0.13102318
-0.03118285 0.009108768 -0.11230205 -0.036767986 -0.09357201 -0.04276062 0.018529331 -0.043538384
-0.035953067 -0.12550035 0.012492051 -0.052765034 0.12692006 -0.024879942 -0.124098174 -0.06884521
-0.077790454 -0.0055071115 0.14923498 0.0456485 0.02536611 -0.010936813 0.062699445 -0.12963012
0.0019249107 -0.09438247 0.023773208 0.019145329 0.14560243 0.13111582 -0.07744225 0.06708864
-0.06865865 -0.13624316 -0.10529778 -0.045708038 0.030536203 -0.005510239 -0.08639997 0.0011502949
-0.11884246 0.0740678 -0.08487222 -0.004387056 0.07766071 0.08760601 0.12274294 0.027114557
0.064385094 0.012111177 -0.047056854 0.046098016 0.0815268 0.09346015 -0.1887577 0.10486463
-0.0028137555 -0.097376235 -0.014461679 0.032647748 -0.031894688 -0.0073116026 -0.029154744 -0.1057542
0.058764167 -0.09652218 0.18782501 -0.09515127 -0.03219542 0.13655491 0.086047456 -0.10404421
0.0007151131 -0.046459172 0.10863165 0.08565487 -0.063600466 0.1693222 0.10918628 -0.15461262
-0.12448455 0.031068254 -0.06641703 -0.07783286 0.034864582 -0.08285344 0.011195432 -0.059605617
-0.021719344 0.11039982 0.14401086 0.03495956 -0.101681516 0.067874484 -0.1199233 0.016124582
0.04020164 -0.12589945 0.052348398 -0.062285665 -0.077729546 -0.040353764 0.018338902 -0.030508792
-0.065115534 0.030716706 0.09236527 -0.16489801 -0.14147256 0.0014942683 0.058763586 -0.117564395
00000000: 6c75 383c 6165 243d 0e52 3e3d d96c b13d
00000010: 10bf bbbd ed0c 12be b056 89bd 6f12 9b3d
00000020: 5da3 17be 827b 2c3e 3ad4 38bd 2bfa f0bd
00000030: ddc6 16be c376 d8bd 1bb6 d2bd 600f 313b
00000040: e672 833d 2b8e c83d 209c d4bd ff95 f3bd
00000050: 0547 a83b e75e 2cbe 578c 933c d143 3a3d
00000060: 8851 f83c 8428 153d 10e8 073e 5e17 3bbc
00000070: 4485 e73d 84e0 00bd 8b17 b5bc 5ec2 fbbd
00000080: 510f d33c fba1 343d 2657 e83b 69a9 af3d
00000090: 07d1 8d3d a58f e03c f411 953d d4cd 21be
000000a0: 0643 a3bb dfa8 88bd 0011 b9bd 4446 01bc
000000b0: f635 943d 82a4 efbc 0d63 c0bd 608a 13bc
000000c0: 862a 4dbd 4345 633c de37 26be 3f77 86bd
000000d0: 66a4 0d3d dc52 1b3d 4e74 183d 6948 dbbd
000000e0: 96df 5e3d 171b 923d 1a15 0fbd 3d52 0bbb
000000f0: 5e25 8abb 6e67 b83c 66c2 233e 1448 e7bd
00000100: e31c 123e a93c 8f3d d9d3 3bbd a97c b83d
00000110: 9209 643e 9ba2 3c3e 28d1 893b 9ba0 d33d
00000120: 829b 08be d6de b6bd 4cd9 08be 114e 863d
00000130: b873 78bd 2dfd cb3d 4888 08be 2bc3 5fbd
00000140: 375d 943d 9a70 f6bc c59b 223e 9c4f 3bbc
00000150: 1001 2c3d deec 223d a4c7 e63d 2b4d 223c
00000160: 51ca 373c d208 81bd 72d9 473e e6e4 083c
00000170: 2405 ffbd ddad e33d 77e6 c63c 191a 1ebd
00000180: c844 abbd 944c ac3d 19e2 e3bd 7e3c e7bd
00000190: 10d2 5c3b 322d 50bd 5075 bf3b 5a7c b1bd
000001a0: 1fcb d7bd 3733 673d 918e b03d c5fb 3c3d
000001b0: a0b7 d03c 310f aa3d 95aa 9abd b422 c0bc
000001c0: 831d 083e be03 a2bd d662 193e c4be 16bd
000001d0: 2b16 35bd 2794 2ebe 911e c63a 7ca2 e3bc
000001e0: 79a8 2abe bc1c 3cbe 9fd9 4c3c 6723 48be
000001f0: b414 c23c a439 043d fda7 c13d 74da a239
00000200: e16f 453d a212 b73d c479 0b3e 4b49 b23d
00000210: b43b 01be 9fd0 e93c b0da 8c3c b7c7 213e
00000220: 5e1d 743c a171 b23d 5b01 b43d eaee edbc
00000230: 6ffa 0fbe 35b7 efbc b41b c0bd f12a 06be
00000240: 2d73 ffbc f13c 153c 9efe e5bd 079a 16bd
00000250: afa2 bfbd c325 2fbd d3ca 973c 4e55 32bd
00000260: 8643 13bd 2a83 00be 76ab 4c3c 2620 58bd
00000270: 55f7 013e 05d1 cbbc 2f27 febd b8fe 8cbd
00000280: 9a50 9fbd 0075 b4bb 0ed1 183e ecf9 3a3d
00000290: 97cc cf3c 5230 33bc 9168 803d c2bd 04be
000002a0: 494d fc3a 994b c1bd 08c0 c23c aad6 9c3c
000002b0: ce18 153e 3a43 063e 0b9a 9ebd c565 893d
000002c0: e89c 8cbd 5483 0bbe 5da6 d7bd 5a38 3bbd
000002d0: 0f27 fa3c 3c8f b4bb 78f2 b0bd 7ec5 963a
000002e0: ad63 f3bd dcb0 973d 7dd1 adbd 4bc1 8fbb
000002f0: 940c 9f3d c86a b33d a760 fb3d 591f de3c
00000300: 55dc 833d f56d 463c b0be 40bd 46d1 3c3d
00000310: 86f7 a63d 0968 bf3d b349 41be 44c3 d63d
00000320: fc66 38bb 316d c7bd aef0 6cbc a5b9 053d
00000330: 01a4 02bd 2b96 efbb eed5 eebc a895 d8bd
00000340: b2b2 703d 6cad c5bd 3355 403e abde c2bd
00000350: 58df 03bd 0dd5 0b3e a639 b03d 2115 d5bd
00000360: 6e76 3b3a f94b 3ebd 457a de3d d26b af3d
00000370: f640 82bd cc62 2d3e 0e9d df3d c552 1ebe
00000380: c1f1 febd da82 fe3c a705 88bd d666 9fbd
00000390: 2ace 0e3d 10af a9bd 0c6d 373c 0525 74bd
000003a0: c4ec b1bc 4d19 e23d 9577 133e c131 0f3d
000003b0: 663e d0bd c701 8b3d 599a f5bd b317 843c
000003c0: 7aaa 243d c9eb 00be 466b 563d 411f 7fbd
000003d0: ab30 9fbd fd49 25bd 773b 963c 93ed f9bc
000003e0: 4b5b 85bd 9aa1 fb3c 012a bd3d 06db 28be
000003f0: 2fde 10be 53db c33a 16b2 703d 9ac5 f0bd

decoder_lstm.weight_hh_l0 f4 [512, 128]
-0.011858039 0.071386196 -0.021998681 0.06755372 0.053783588 0.033000685 -0.0484666 0.01635988
0.05338078 -0.0053406507 -0.02885117 -0.055665556 0.061183058 -0.006400034 0.024827465 -0.032535028
0.05577173 0.0031001642 -0.08155008 0.061142422 0.009460703 -0.07954715 0.08212494 -0.025179394
0.026774533 -0.012044065 -0.017728336 -0.044889733 -0.04880769 -0.04822142 -0.08104779 -0.025505163
0.088176005 -0.0033323169 -0.047810182 -0.07151016 -0.0051892176 -0.054851584 0.016448155 0.03527309
-0.043180574 -0.022357494 -0.012126893 -0.07983659 0.049048193 0.05471141 -0.076903805 -0.075913735
-0.027766395 -0.008203432 -0.072044656 0.058542408 -0.043127194 0.04559923 -0.007965319 -0.03912828
-0.020096712 0.0040821657 0.030213766 -0.007054515 0.0012944564 -0.050800428 -0.048986774 0.08370855
-0.020321101 0.060974605 -0.07149389 -0.07042441 0.067535944 0.054398976 0.07762327 -0.07356218
-0.030106578 -0.023118608 -0.03968077 0.016736664 -0.014488108 0.07208865 0.023805916 0.043311752
-0.041266683 0.06992326 0.04209026 -0.07040721 0.072967134 -0.06411621 0.066791065 0.052174978
-0.010512605 0.016274177 -0.038375348 -0.0071358085 0.008112803 -0.059453808 -0.01473619 0.019465037
-0.027879898 0.05204148 -0.06238751 -0.037688185 -0.0010290444 0.0018925071 -0.076223806 -0.0396071
0.02704461 -0.06242177 -0.0087843165 0.01492703 -0.045236137 -0.07970639 0.024973005 -0.042267937
0.0055468082 -0.061645854 0.0020415336 -0.012872994 0.02053053 0.006002575 0.028575279 -0.05500133
0.08720296 -0.015341938 -0.026406359 -0.07295517 0.07387366 0.045725085 0.031969883 -0.06610497
0.0864157 0.05517424 -0.06982384 0.02904547 0.00873822 -0.055197176 -0.04426225 0.054167546
0.015260465 0.0008745268 -0.007718496 0.06258278 -0.08236397 0.04478606 -0.05842629 0.01865723
0.06335247 0.07563228 0.08218261 -0.02784169 0.08011689 0.01916223 -0.0635719 0.06881895
-0.0881348 -0.0072067976 0.06853249 -0.08059177 -0.029496789 5.0887465e-06 -0.07798985 -0.03109879
0.06532442 0.06898963 -0.04387406 0.010644868 -0.05494403 0.079895444 0.031215526 0.006398931
0.020972662 -0.08612399 -0.03409955 -0.053267863 0.04332768 0.01979655 -0.011180654 0.0437574
-0.010615379 0.047033004 0.012495384 0.071307056 0.08248947 -0.0028922781 -0.050235197 0.060926847
-0.0704103 -0.025353998 0.04136225 -0.054020427 0.04685264 0.0038280487 -0.046268303 -0.08391688
-0.08558102 -0.027168341 0.051712595 -0.07222972 0.017399617 -0.012764975 0.0012569577 -0.024022363
0.024448901 -0.070468634 0.045362912 -0.07665139 -0.044880617 0.0095439255 0.06323544 -0.01350525
-0.032433044 -0.058874235 0.05948221 -0.057269514 -0.009333521 -0.0792103 0.04742583 -0.021707356
0.063069664 0.040559836 0.080178045 -0.020000964 0.08501942 -0.04429737 0.03213071 0.07921747
0.0044755563 -0.031689003 4.3191016e-05 0.068040855 0.08724164 0.0818801 0.08213461 0.05642364
-0.021336451 0.0569193 -0.0443249 0.012938142 0.035744123 0.0013712198 0.08762499 0.0047813356
0.05704484 -0.012796469 0.05898846 -0.0023380518 -0.088292055 0.03831119 0.06731755 -0.07827298
0.059266903 -0.027325254 0.030253716 -0.019439071 0.06623844 0.070341386 0.030261807 0.0253044
00000000: 3848 42bc ed32 923d 9436 b4bc 9b59 8a3d
00000010: 2e4c 5c3d ba2b 073d ea84 46bd 2805 863c
00000020: cea5 5a3d a000 afbb 4a59 ecbc 9101 64bd
00000030: 169b 7a3d 60b7 d1bb f862 cb3c 7343 05bd
00000040: e670 643d 202c 4b3b ba03 a7bd 7a70 7a3d
00000050: 1001 1b3c 9ee9 a2bd 1f31 a83d 0445 cebc
00000060: 4456 db3c 7854 45bc 043b 91bc 4cde 37bd
00000070: 93ea 47bd d383 45bd 62fc a5bd 34f0 d0bc
00000080: 9f95 b43d 0063 5abb 9cd4 43bd eb73 92bd
00000090: 500a aabb 0eac 60bd 48be 863c 847a 103d
000000a0: 1dde 30bd 1027 b7bc e0af 46bc 5e81 a3bd
000000b0: c2e6 483d 1219 603d be7f 9dbd a978 9bbd
000000c0: 5a76 e3bc b067 06bc 268c 93bd 2aca 6f3d
000000d0: 24a6 30bd 42c6 3a3d f880 02bc fa44 20bd
000000e0: dca1 a4bc b0c3 853b dc82 f73c 9029 e7bb
000000f0: c0aa a93a 1c14 50bd 5ba6 48bd 636f ab3d
00000100: 7078 a6bc 82c0 793d 636b 92bd ac3a 90bd
00000110: 4950 8a3d 76d1 5e3d f3f8 9e3d c5a7 96bd
00000120: 12a2 f6bc 3c63 bdbc 4e88 22bd 541b 893c
00000130: 885f 6dbc 37a3 933d a004 c33c aa67 313d
00000140: 4107 29bd ed33 8f3d d666 2c3d a831 90bd
00000150: cb6f 953d 5c4f 83bd c1c9 883d 6eb5 553d
00000160: 103d 2cbc 6c51 853c 782f 1dbd 80d3 e9bb
00000170: 90eb 043c d685 73bd 1070 71bc 2475 9f3c
00000180: 6264 e4bc 7229 553d 0c8a 7fbd ed5e 1abd
00000190: 00e1 86ba 000e f83a 3a1b 9cbd 0e3b 22bd
000001a0: a88c dd3c f8ad 7fbd 18ec 0fbc 8090 743c
000001b0: 8749 39bd 1b3d a3bd 3094 cc3c 2521 2dbd
000001c0: 00c2 b53b 5d80 7cbd 40cb 053b 40e9 52bc
000001d0: a42f a83c 40b1 c43b b416 ea3c 1349 61bd
000001e0: 7797 b23d c05c 7bbc 2652 d8bc 8569 95bd
000001f0: 134b 973d 3a4a 3b3d daf2 023d 0b62 87bd
00000200: b7fa b03d 62fe 613d cdff 8ebd c4f0 ed3c
00000210: c02a 0f3c 6f16 62bd 554c 35bd cade 5d3d
00000220: 0807 7a3c 8040 653a 70eb fcbb 672b 803d
00000230: 71ae a8bd 9671 373d 6850 6fbd 0cd7 983c
00000240: f1be 813d 19e5 9a3d 5b4f a83d 4214 e4bc
00000250: 5314 a43d 1cfa 9c3c fc31 82bd f3f0 8c3d
00000260: 0580 b4bd 0027 ecbb c35a 8c3d 4c0d a5bd
00000270: 40a3 f1bc 00c0 aa36 24b9 9fbd e4c2 febc
00000280: cfc8 853d 6f4a 8d3d 49b5 33bd d067 2e3c
00000290: fe0c 61bd 39a0 a33d b4b7 ff3c 20ae d13b
000002a0: dcce ab3c c661 b0bd f8ab 0bbd 672f 5abd
000002b0: 5e78 313d 602c a23c 102f 37bc f63a 333d
000002c0: 20ec 2dbc aea5 403d 70b9 4c3c 6f09 923d
000002d0: 3df0 a83d 608c 3dbb 6cc3 4dbd 6e8e 793d
000002e0: 4633 90bd 30b3 cfbc 766b 293d 8644 5dbd
000002f0: 8ee8 3f3d 00e0 7a3b d583 3dbd 9ddc abbd
00000300: 1a45 afbd 2490 debc 96d0 533d 2ded 93bd
00000310: a489 8e3c 3024 51bc 80c0 a43a 8cca c4bc
00000320: 1049 c83c dc51 90bd 76ce 393d 67fb 9cbd
00000330: bdd4 37bd 205e 1c3c 9581 813d 2045 5dbc
00000340: 83d8 04bd 1c26 71bd 9ea3 733d 7093 6abd
00000350: a0eb 18bc 0339 a2bd 9641 423d a0d3 b1bc
00000360: ab2a 813d 1222 263d 6334 a43d 10d9 a3bc
00000370: a91e ae3d 2971 35bd 7e9b 033d c53c a23d
00000380: b0a7 923b 54cc 01bd 0028 3538 0159 8b3d
00000390: bfab b23d c1b0 a73d 3136 a83d 7a1c 673d
000003a0: c8c9 aebc 3624 693d 078e 35bd 80fa 533c
000003b0: 6e68 123d 80ba b33a bb74 b33d c0ac 9c3b
000003c0: daa7 693d 48a8 51bc e29d 713d 003a 19bb
000003d0: 77d2 b4bd 32ec 1c3d c9dd 893d 964d a0bd
000003e0: dac1 723d 36d9 dfbc a4d6 f73c b03e 9fbc
000003f0: 05a8 873d 250f 903d 9ce7 f73c 2c4b cf3c
